checkpoints/PPO_KL_episode_0.pt (torch, 856898 bytes, 11 tensors)

shared.0.weight f4 [256, 54]
-0.0040206723 0.0032954041 0.1136929 0.12479942 0.02266618 -0.12034294 0.09844592 -0.1238401
-0.03615216 -0.06536285 -0.002833295 -0.06091462 0.032777656 0.07214774 0.046646565 -0.091122046
0.052420545 0.11514985 -0.06071379 -0.100614965 0.015304892 0.13183106 -0.074561074 -0.026738277
0.024306063 0.08717997 0.10702577 -0.11894556 0.1303882 -0.067848176 0.09070161 0.01112529
0.0950264 -0.103662506 -0.013439666 0.10362938 -0.11591121 -0.13403554 0.113312006 -0.100539155
-0.027692394 -0.02651642 0.121072665 0.007819715 0.084817335 0.078822926 -0.08816895 0.0851349
0.017084822 -0.06560322 0.08497487 0.02236605 -0.11346673 0.11168625 0.106400184 -0.037847217
0.10746528 -0.020481309 -0.04790545 0.05678521 -0.1166058 -0.08739719 0.0587906 0.09050599
0.030255748 -0.13000406 0.0298255 -0.007884539 -0.026204724 0.08857245 -0.07158618 0.055243295
-0.08641322 0.03744714 0.094676144 0.017487088 -0.11365651 -0.084104426 0.060528416 -0.0477009
0.017666945 0.09795547 0.028677382 -0.124247976 0.10690642 -0.076489046 -0.028213877 0.07076437
-0.011072795 0.0029435742 0.06658413 0.1327752 -0.035470497 -0.11565574 -0.120760195 0.047485195
0.05972249 -0.020167131 0.109270774 0.03909293 -0.07010534 -0.13031587 -0.08013867 0.10929803
-0.013727936 -0.005578389 -0.010283805 -0.11697734 -0.02600858 -0.114484765 0.090579085 0.03859714
-0.12891227 0.044486854 0.06566335 -0.11492901 -0.0969421 -0.079049066 -0.049631864 -8.432367e-05
0.0061225346 0.048426688 0.057968598 -0.09486491 -0.012324624 0.07445154 0.0104769645 -0.015881093
0.08690809 0.076104194 0.038960893 -0.02980999 0.13562346 -0.03323824 0.10811914 0.03321548
0.078798994 -0.07282321 -0.0670879 -0.08922497 -0.06139271 0.02758544 0.031796563 0.1358209
0.049194623 -0.04529617 -0.12522238 0.060514513 -0.12800606 -0.07184375 -0.10995844 0.024045954
0.048540927 0.09122527 -0.12864812 0.09665717 0.08895966 -0.0031921165 -0.06066707 0.10703228
-0.091899015 0.11370774 -0.08547524 0.115933724 -0.08532052 0.002276512 -0.07662913 0.028481577
0.07861693 0.12536582 -0.13310553 -0.037285905 0.10393149 -0.04510033 -0.12079055 0.014217639
-0.057927687 0.12614231 0.031230403 0.056330808 0.0378874 -0.13342747 0.07730571 -0.012455149
0.123736456 -0.08450338 0.11337097 0.07321911 0.13019815 0.070811234 0.1170312 -0.042170547
-0.09976345 0.10238197 -0.0064280657 0.006544899 0.12463894 0.034817304 -0.078591965 0.07377664
-0.095302604 0.021034067 0.11743901 -0.08444758 -0.092334434 -0.0044122306 0.11923187 0.13220026
0.017814567 -0.07338917 -0.050639495 -0.0062412983 0.02593631 0.11169157 -0.040701747 -0.1296618
-0.13367626 0.024517959 -0.049100645 0.0055509084 0.12217718 0.10240531 0.13352178 0.09443916
0.0949382 -0.1228798 0.0010971162 -0.048865568 -0.042871255 -0.03215136 0.030585127 -0.026100496
-0.090218365 0.08054402 -0.12661599 0.11620175 -0.033109356 0.013890354 -0.085283905 -0.07023825
-0.11365462 0.10353064 0.029442735 -0.050393485 0.1324693 0.09137028 -0.040707212 -0.021787709
0.025826566 -0.11172332 0.1034102 -0.00018170632 0.08204455 0.05197367 0.021104505 0.12515658
00000000: d8bf 83bb b5f7 573b d3d7 e83d d796 ff3d
00000010: 6dae b93c 5c76 f6bd 049e c93d e19f fdbd
00000020: 4a14 14bd f5dc 85bd cdae 39bb 9c81 79bd
00000030: dd41 063d 32c2 933d 7810 3f3d 329e babd
00000040: edb6 563d afd3 eb3d 06af 78bd 380f cebd
00000050: 5fc1 7a3c b9fe 063e 7ab3 98bd 3b0a dbbc
00000060: 821d c73c 6a8b b23d 5430 db3d bb99 f3bd
00000070: 7c84 053e fcf3 8abd c4c1 b93d d946 363c
00000080: 349d c23d 024d d4bd 0b32 5cbc a43b d43d
00000090: db62 edbd 9d40 09be 2010 e83d 79e7 cdbd
000000a0: 29db e2bc f738 d9bc f2f4 f73d 431e 003c
000000b0: b6b4 ad3d ea6d a13d ec91 b4bd 355b ae3d
000000c0: 78f5 8b3c fb5a 86bd 4e07 ae3d 0239 b73c
000000d0: 3f61 e8bd c3bb e43d 57e8 d93d af05 1bbd
000000e0: c216 dc3d 6bc8 a7bc 8138 44bd 9c97 683d
000000f0: 06cf eebd 4cfd b2bd 6ace 703d 345b b93d
00000100: e7da f73c c91f 05be 9b54 f43c 272e 01bc
00000110: 4aab d6bc 7965 b53d c69b 92bd cb46 623d
00000120: 6af9 b0bd 2c62 193d 91e5 c13d 1541 8f3c
00000130: bfc4 e8bd f13e acbd a5ec 773d 0562 43bd
00000140: 45ba 903c e19c c83d d4ec ea3c b975 febd
00000150: c1f1 da3d 4aa6 9cbd ca20 e7bc e9ec 903d
00000160: ab6a 35bc fbe8 403b 435d 883d 39f6 073e
00000170: 8349 11bd ebdc ecbd 1f51 f7bd d67f 423d
00000180: 929f 743d 8a35 a5bc 5bc9 df3d e81f 203d
00000190: 6393 8fbd 8671 05be be1f a4bd a5d7 df3d
000001a0: 23eb 60bc ebca b6bb 687d 28bc d191 efbd
000001b0: f20f d5bc fd76 eabd 8781 b93d 0918 1e3d
000001c0: 9401 04be d937 363d 827a 863d e75f ebbd
000001d0: 9489 c6bd 7ae4 a1bd c84a 4bbd edd6 b0b8
000001e0: 8b9f c83b 105b 463d 7b70 6d3d 8948 c2bd
000001f0: 38ed 49bc 0d7a 983d 93a7 2b3c 1119 82bc
00000200: defc b13d 84dc 9b3d 7595 1f3d 1534 f4bc
00000210: e0e0 0a3e d224 08bd 916d dd3d f50c 083d
00000220: 5e61 a13d 5624 95bd 6265 89bd 95bb b6bd
00000230: ec76 7bbd dcfa e13c 1d3d 023d a214 0b3e
00000240: 4d80 493d 7a88 39bd 4c3a 00be 11de 773d
00000250: 0514 03be d122 93bd e431 e1bd 05fc c43c
00000260: dad2 463d 50d4 ba3d 55bc 03be 32f4 c53d
00000270: 7b30 b63d d432 51bb 097e 78bd bd33 db3d
00000280: 8d35 bcbd 9bdf e83d a50d afbd a96e ed3d
00000290: 86bc aebd 8931 153b bcef 9cbd 3252 e93c
000002a0: ea01 a13d e65f 003e d14c 08be 1bb9 18bd
000002b0: 08da d43d 20bb 38bd 0961 f7bd 1af1 683c
000002c0: 9545 6dbd 732b 013e e7d6 ff3c 22bb 663d
000002d0: d12f 1b3d 36a1 08be 7552 9e3d ae10 4cbc
000002e0: 8a69 fd3d 1c10 adbd 0a2f e83d e7f3 953d
000002f0: aa52 053e 7b05 913d 0eae ef3d 06bb 2cbd
00000300: c850 ccbd a3ad d13d 86a2 d2bb 9876 d63b
00000310: b342 ff3d 979c 0e3d d3f4 a0bd 3518 973d
00000320: 032e c3bd a34f ac3c dd83 f03d daf2 acbd
00000330: d619 bdbd 7994 90bb d72f f43d 815f 073e
00000340: dbef 913c 104d 96bd 5c6b 4fbd ce83 ccbb
00000350: 6278 d43c 8dbe e43d e0b6 26bd 10c6 04be
00000360: 6ee2 08be e3d9 c83c c21d 49bd 65e4 b53b
00000370: 0838 fa3d e0b9 d13d efb9 083e 5169 c13d
00000380: f66e c23d 68a8 fbbd 1ccd 8f3a 4327 48bd
00000390: c599 2fbd 25b1 03bd a98d fa3c b5d0 d5bc
000003a0: 68c4 b8bd 43f4 a43d 9fa7 01be 2ffb ed3d
000003b0: ad9d 07bd 5e94 633c 54a9 aebd 12d9 8fbd
000003c0: c1c3 e8bd df07 d43d e431 f13c 6669 4ebd
000003d0: 08a6 073e 5720 bb3d 9bbc 26bd 237c b2bc
000003e0: 3c92 d33c 32cf e4bd bac8 d33d 6b88 3eb9
000003f0: f906 a83d 58e2 543d 5be3 ac3c 0c29 003e

shared.0.bias f4 [256]
0.041054677 -0.10380943 -0.036230206 0.107801475 -0.04826643 -0.01856756 -0.050453264 -0.057134982
-0.039145198 -0.06847251 -0.06697986 -0.133541 0.10555495 -0.10038655 -0.08083712 0.059620634
0.10432865 -0.108493306 -0.100068435 0.048759427 0.030661162 -0.07878991 0.09162936 -0.006018128
-0.051530313 -0.117486805 -0.03246708 0.13097888 -0.119583584 -0.037862644 -0.066203766 0.057568703
0.058572184 -0.11339957 0.00042249437 -0.049015656 0.083189666 0.11027538 -0.03748466 0.04147685
-0.10364523 0.04261637 -0.020166546 0.123359255 -0.038694605 0.04518537 0.06163616 0.03283794
-0.02003526 0.012676924 0.017058883 -0.08218609 -0.104841836 0.02115825 0.07528686 0.09802657
0.014507306 0.04442091 -0.06952021 -0.074838474 -0.036823943 -0.0134976115 0.076584175 -0.029393824
-0.0113124475 -0.0005681709 -0.009551432 0.1123317 -0.122850165 0.02420323 0.08218639 -0.072521195
0.039837908 0.12983757 0.017456476 0.041061815 0.13038364 0.015872382 -0.11476933 0.10150294
-0.045315813 -0.047248624 -0.09068699 0.11839308 -0.0377461 -0.10795732 0.09007686 0.064950496
0.041684836 0.070699915 0.00303257 -0.036344767 -0.04175558 -0.0013714845 -0.028617488 0.027893404
-0.055044085 0.109851345 0.051444076 -0.10496808 -0.05844229 -0.08324 -0.07535396 0.11113062
0.12725417 -0.045240413 0.0715755 -0.108441085 0.11030291 -0.08405954 0.039688937 -0.025395328
0.085267924 -0.053366244 0.066245586 0.06432241 0.003193609 -0.09718589 -0.04101091 -0.013749252
0.03577405 0.0031815558 -0.033740222 0.0044188006 0.13293758 0.06286466 0.034800403 0.11674867
-0.046169546 0.07443993 0.026944106 0.003985437 0.026797002 0.079412974 0.06393264 0.019491293
0.048326436 -0.0856328 -0.08221748 0.047862053 -0.013910259 0.118091814 -0.116291344 0.07375724
0.09180003 0.011723813 -0.09592926 -0.09639607 -0.13089281 0.0030923006 0.06261336 -0.023807762
0.02693314 -0.010168627 -0.057742946 0.09393248 0.008874247 -0.13042451 0.0052091526 0.013157932
0.13212913 0.06611683 -0.0070108045 0.092839144 -0.05307364 -0.08837413 -0.088217616 0.0028013694
-0.1310349 0.08650147 0.06541935 0.07746195 -0.05629778 -0.100214675 -0.118556194 -0.10842958
0.09936167 0.049715407 -0.07949571 -0.07459657 -0.04919467 -0.10502463 0.0662122 -0.110100016
0.037377108 -0.12154521 -0.08212433 0.07447395 -0.0119681535 -0.11022152 -0.08497696 -0.025114957
-0.08194639 0.015401529 0.09383882 0.013473586 -0.033708688 -0.030499976 -0.09056072 -0.050564986
0.00042878863 0.046641696 0.022880234 -0.029116567 0.026670419 0.04007196 -0.01974371 0.13445494
0.07096314 -0.13292323 -0.09023113 0.08366066 0.08645147 0.13439123 0.018466122 -0.12655617
0.029358411 -0.13141778 0.07479004 -0.13481367 -0.12294364 -0.03628695 -0.0705318 0.07684745
0.11997098 0.08633237 -0.055299766 -0.10866536 -0.0411731 -0.08923007 -0.0047945743 -0.057785418
0.040688686 -0.099114835 0.050096877 -0.020739583 0.041820843 -0.048786677 -0.021678338 0.057323698
-0.061480362 -0.095866166 -0.004615042 -0.004459048 0.008302653 -0.11721853 -0.027389767 -0.10477301
-0.11026513 -0.029250337 -0.0834323 0.10000595 -0.12985216 0.06335331 -0.13521534 0.0071419296
00000000: f328 283d 0a9a d4bd 2066 14bd 05c7 dc3d
00000010: 05b3 45bd ff1a 98bc 15a8 4ebd 5f06 6abd
00000020: b756 20bd 513b 8cbd bd2c 89bd f9be 08be
00000030: 322d d83d 7797 cdbd ef8d a5bd c434 743d
00000040: 42aa d53d bd31 debd aef0 ccbd f7b7 473d
00000050: 1e2d fb3c 9b5c a1bd 2da8 bb3d b733 c5bb
00000060: 7311 53bd ec9c f0bd 33fc 04bd 541f 063e
00000070: 3de8 f4bd dc15 1bbd d795 87bd 29cd 6b3d
00000080: 63e9 6f3d 093e e8bd 3c82 dd39 a4c4 48bd
00000090: 585f aa3d 0fd8 e13d 8489 19bd a1e3 293d
000000a0: f343 d4bd 818e 2e3d 5034 a5bc c7a3 fc3d
000000b0: 3c7e 1ebd 4b14 393d 3376 7c3d 1381 063d
000000c0: fc20 a4bc dfb2 4f3c 12bf 8b3c 2e51 a8bd
000000d0: 51b7 d6bd 1154 ad3c ff2f 9a3d 28c2 c83d
000000e0: 0db0 6d3c b3f2 353d 9d60 8ebd ea44 99bd
000000f0: b4d4 16bd 1625 5dbc 2ad8 9c3d 51cb f0bc
00000100: d857 39bc 4ef1 14ba 9c7d 1cbc 2a0e e63d
00000110: de98 fbbd da45 c63c 5751 a83d fe85 94bd
00000120: 132d 233d 24f4 043e e200 8f3c 6f30 283d
00000130: 4a83 053e cc06 823c 2f0c ebbd c6e0 cf3d
00000140: 139d 39bd c687 41bd 1aba b9bd 1278 f23d
00000150: a89b 1abd ba18 ddbd 377a b83d c404 853d
00000160: b8bd 2a3d 1ecb 903d 15be 463b 40de 14bd
00000170: e607 2bbd 62c3 b3ba 396f eabc b580 e43c
00000180: e875 61bd bef9 e03d 06b7 523d 81f9 d6bd
00000190: 2f61 6fbd bc79 aabd 2d53 9abd 7398 e33d
000001a0: eb4e 023e 034e 39bd 2d96 923d 5c16 debd
000001b0: 7ee6 e13d 6827 acbd de90 223d dd09 d0bc
000001c0: f3a0 ae3d 9096 5abd c4ab 873d 78bb 833d
000001d0: de4b 513b 6509 c7bd 0efb 27bd 8b44 61bc
000001e0: cf87 123d a681 503b 3033 0abd 96cb 903b
000001f0: ca20 083e 30bf 803d de8a 0e3d ed19 ef3d
00000200: 471c 3dbd f673 983d e3b9 dc3c 4598 823b
00000210: 6385 db3c 45a3 a23d 1eef 823d 34ac 9f3c
00000220: f1f1 453d 4060 afbd a361 a8bd 000b 443d
00000230: dbe7 63bc 1fda f13d 282a eebd 090e 973d
00000240: a701 bc3d 3c15 403c 8f76 c4bd 4e6b c5bd
00000250: c408 06be 32a8 4a3b 6f3b 803d 7f08 c3bc
00000260: e3a2 dc3c 509a 26bc de83 6cbd ac5f c03d
00000270: 4a65 113c 018e 05be 8ab1 aa3b 5e94 573c
00000280: dc4c 073e 4368 873d e4ba e5bb 7322 be3d
00000290: bf63 59bd 7ffd b4bd 70ab b4bd 2e97 373b
000002a0: 032e 06be af27 b13d 95fa 853d 5fa4 9e3d
000002b0: 8098 66bd 5a3d cdbd 97cd f2bd 5410 debd
000002c0: 227e cb3d 62a2 4b3d a6ce a2bd 16c6 98bd
000002d0: 5a80 49bd 2717 d7bd 439a 873d 1e7c e1bd
000002e0: bd18 193d b2ec f8bd cd30 a8bd cc85 983d
000002f0: 1316 44bc d2bb e1bd 6708 aebd e2bd cdbc
00000300: 82d3 a7bd b256 7c3c 912e c03d 51c0 5c3c
00000310: 1f12 0abd 16db f9bc e677 b9bd 3b1d 4fbd
00000320: 09cf e039 5d0b 3f3d 546f bb3c de85 eebc
00000330: ec7b da3c 7f22 243d 90bd a1bc 8eae 093e
00000340: 1f55 913d 071d 08be 19cb b8bd 4856 ab3d
00000350: 780d b13d db9d 093e 4446 973c f197 01be
00000360: 0d81 f03c 6292 06be 852b 993d 980c 0abe
00000370: e0c9 fbbd a0a1 14bd fa72 90bd 3262 9d3d
00000380: 58b3 f53d 07cf b03d 0282 62bd f28b debd
00000390: 20a5 28bd 41be b6bd ce1b 9dbb 67b0 6cbd
000003a0: 2ea9 263d b8fc cabd 6232 4d3d 0fe6 a9bc
000003b0: 554c 2b3d 8ad4 47bd c596 b1bc 41cc 6a3d
000003c0: d5d2 7bbd 7b55 c4bd c739 97bb 351d 92bb
000003d0: da07 083c 4510 f0bd 8160 e0bc 3b93 d6bd
000003e0: afd2 e1bd 679e efbc 8ede aabd ebcf cc3d
000003f0: f7f7 04be 61bf 813d e475 0abe d906 ea3b

shared.2.weight f4 [256, 256]
0.05816908 -0.011910863 0.006679788 0.0010305792 -0.05956 -0.024011083 0.033235326 0.0060776323
-0.026508883 0.05266744 0.040958464 -0.04825286 0.0057951137 -0.009037323 0.03894326 0.0112127885
0.013985671 -0.043089382 0.053183615 -0.055209063 -0.016460896 0.051281407 0.044862054 0.025997087
-0.04448667 -8.0391765e-06 -0.01753363 -0.013922729 -0.049107634 -0.027009398 -0.010595739 0.01315809
0.036973618 0.042366087 0.02393286 -0.021560095 -0.05410336 -0.0109009445 -0.039295696 0.04893017
-0.016880855 -0.028852627 -0.030181482 -0.0219201 0.03444308 -0.004450083 0.05969421 0.04141777
0.029207528 0.009654455 -0.046147473 -0.00086518377 0.04825677 0.0230655 -0.051724046 0.0051655844
-0.03867253 -0.047967233 -0.057842575 -0.0532113 -0.059326768 -0.03690306 0.04291831 -0.05895572
0.05245597 0.0049266145 0.028050743 0.030025452 -0.0021358803 0.007483706 0.037605233 0.023401015
-0.00042633712 0.017252691 -0.018423483 -0.003017217 -0.033967644 -0.021910317 0.040651396 -0.038726777
-0.0071020573 0.022407517 0.021404542 -0.036583282 0.033439554 0.036723353 0.026307657 0.0356675
-0.04973688 0.06245368 0.017174691 -0.010982089 -0.010951951 -0.022868983 0.016752712 -0.0049403906
-0.02840788 -0.060768 -0.04031325 0.025653407 -0.050226726 -0.023573436 0.036271177 -0.0075356737
0.046614468 0.047650076 -0.04932028 -0.0018574223 -0.013682105 -0.015279651 -0.026264347 -0.051565126
0.04148487 -0.02343943 0.0030571893 0.001350455 0.014843106 0.05019349 0.049500853 0.0145645365
-0.056784183 0.008038223 -0.02714014 0.056259476 0.050518446 0.06104903 0.02339954 -0.005217977
0.042134464 0.021949373 0.0060249567 -0.03208091 0.032939732 0.06022898 -0.004129462 0.026959077
-0.05955179 -0.024955675 0.0401251 0.050458334 -0.058811933 -0.049459286 0.056521274 -0.007849611
-0.058474064 -0.051855102 -0.052869998 -0.019928597 -0.05496376 -0.034411825 0.043427825 0.0412286
-0.028490916 0.054354884 -0.052037805 -0.049274564 -0.012663662 0.04067026 -0.011779994 0.039428785
0.010099396 -0.020694308 0.039324462 -0.014567189 -0.012970008 -0.02442354 0.059547447 -0.010539904
0.0004245937 -0.040712975 0.022687264 0.060641192 0.05959513 -0.04407926 0.015515268 0.0063855127
-0.0074814856 0.050001286 -0.023971796 0.010079622 -0.022388704 0.030881442 -0.022674106 -0.055023752
-0.052922033 0.011909597 0.04745753 0.0072918236 0.014455751 0.0021473542 0.026066646 -0.026287198
0.02789259 -0.040598087 0.03874971 0.060155928 -0.015652217 0.036843203 0.006614104 -0.030968659
-0.03703648 -0.022954851 0.031361356 0.032310784 -0.023236364 0.02262722 -0.047477007 -0.04659541
-0.05069094 0.055025004 0.0096728355 0.036857918 -0.031626493 -0.011795007 0.003437698 0.019995056
0.004208289 0.002792932 -0.037448004 -0.02099365 0.046645895 0.05063507 0.03704928 -0.005789593
-0.02381567 -0.018698692 -0.05757814 -0.033145465 -0.013548955 0.013450414 -0.03632608 0.02981294
0.04264313 -0.038370244 -0.005020492 -0.043674782 -0.050001062 0.0033030063 0.01129847 0.0120644495
-0.015208483 -0.039747715 0.043631338 0.021748222 -0.031421505 0.01951605 -0.0017599165 0.04306873
-0.055653676 0.050029717 -0.007890165 -0.047612496 0.02198653 0.027035527 -0.016590416 -0.008653536
00000000: b442 6e3d c825 43bc 20e2 da3b 8014 873a
00000010: 30f5 73bd e4b2 c4bc c421 083d e026 c73b
00000020: 2829 d9bc d0b9 573d 10c4 273d caa4 45bd
00000030: f0e4 bd3b 4811 14bc f882 1f3d d8b5 373c
00000040: 2824 653c 7e7e 30bd 10d7 593d e622 62bd
00000050: 00d9 86bc 740c 523d 46c1 373d d8f7 d43c
00000060: a837 36bd 00e0 06b7 b0a2 8fbc 281c 64bc
00000070: 1625 49bd d042 ddbc c099 2dbc 0895 573c
00000080: a671 173d 1088 2d3d d80e c43c cc9e b0bc
00000090: 7c9b 5dbd e099 32bc 86f4 20bd 006b 483d
000000a0: b849 8abc 585c ecbc 283f f7bc c891 b3bc
000000b0: 3014 0d3d 00d2 91bb ea81 743d aea5 293d
000000c0: a044 ef3c b82d 1e3c 2205 3dbd 80cd 62ba
000000d0: e4a8 453d dcf3 bc3c 98dc 53bd 1044 a93b
000000e0: 1667 1ebd 4a79 44bd 56ec 6cbd 18f4 59bd
000000f0: a000 73bd aa27 17bd 1ccb 2f3d 8e7b 71bd
00000100: 12dc 563d 706f a13b acca e53c f0f7 f53c
00000110: 20fa 0bbb e039 f53b f207 1a3d 7cb3 bf3c
00000120: 0086 dfb9 8455 8d3c d8ec 96bc 80bc 45bb
00000130: a821 0bbd 447d b3bc 1482 263d f89f 1ebd
00000140: 60b8 e8bb f88f b73c 9458 af3c 5ad8 15bd
00000150: eaf7 083d 3a6b 163d 2883 d73c 1618 123d
00000160: e6b8 4bbd 6ecf 7f3d f0b1 8c3c 38ee 33bc
00000170: d06f 33bc bc57 bbbc fc3c 893c 00e3 a1bb
00000180: a4b7 e8bc dee7 78bd 821f 25bd 1827 d23c
00000190: 8aba 4dbd 141d c1bc 1691 143d d0ed f6bb
000001a0: d0ee 3e3d ba2c 433d 1004 4abd c074 f3ba
000001b0: e82a 60bc 8057 7abc 5428 d7bc f435 53bd
000001c0: 0aec 293d 0c04 c0bc 205b 483b c001 b13a
000001d0: 8030 733c b097 4d3d 68c1 4a3d 18a0 6e3c
000001e0: 8896 68bd c0b2 033c 0055 debc 5670 663d
000001f0: 6eec 4e3d 8c0e 7a3d 64b0 bf3c 90fb aabb
00000200: 3095 2c3d 2ccf b33c 006d c53b 4667 03bd
00000210: d0eb 063d aab2 763d 7050 87bb 48d9 dc3c
00000220: 94ec 73bd d86f ccbc 385a 243d 66ad 4e3d
00000230: c8e4 70bd d295 4abd da82 673d a89b 00bc
00000240: 8082 6fbd 0466 54bd 368e 58bd 4c41 a3bc
00000250: ae21 61bd 6af3 0cbd 60e1 313d 52df 283d
00000260: c865 e9bc 3aa3 5e3d 9825 55bd 20d4 49bd
00000270: 407b 4fbc dc95 263d e000 41bc 1480 213d
00000280: f077 253c 1c87 a9bc b012 213d 38ab 6ebc
00000290: 2880 54bc e013 c8bc 06e8 733d 90af 2cbc
000002a0: 009c de39 a6c2 26bd a4da b93c e662 783d
000002b0: 061a 743d 748c 34bd c033 7e3c 903d d13b
000002c0: 4027 f5bb 26ce 4c3d 8060 c4bc 0025 253c
000002d0: 8468 b7bc 14fb fc3c 0cbf b9bc 9660 61bd
000002e0: c6c4 58bd 7820 433c d462 423d 40f0 ee3b
000002f0: d0d7 6c3c a0ba 0c3b b889 d53c 4058 d7bc
00000300: 007f e43c 2e4a 26bd 04b8 1e3d 1066 763d
00000310: 1439 80bc e6e8 163d 20bb d83b fcb1 fdbc
00000320: 90b3 17bd d00b bcbc c474 003d 5058 043d
00000330: 305a bebc b85c b93c 4077 42bd d4da 3ebd
00000340: 4ea1 4fbd e661 613d d07a 1e3c 54f8 163d
00000350: c88a 01bd d83f 41bc 004b 613b accc a33c
00000360: b0e5 893b a009 373b 1463 19bd e0fa abbc
00000370: c40f 3f3d b866 4f3d fcc0 173d a0b6 bdbb
00000380: 1419 c3bc 002e 99bc 0ed7 6bbd 8ac3 07bd
00000390: 70fc 5dbc 205f 5c3c a8ca 14bd 443a f43c
000003a0: 90aa 2e3d 1e2a 1dbd f082 a4bb 54e4 32bd
000003b0: eacd 4cbd 4077 583b 381d 393c f8a9 453c
000003c0: 002d 79bc 80ce 22bd c6b6 323d 5429 b23c
000003d0: d6b3 00bd 20e0 9f3c 00ad e6ba d668 303d
000003e0: 1cf5 63bd f6eb 4c3d c045 01bc 5205 43bd
000003f0: 181d b43c 9c79 dd3c a0e8 87bc 90c7 0dbc

shared.2.bias f4 [256]
-0.047079317 0.015463226 0.044688493 0.016357541 -0.036573082 0.0068903714 0.034120776 0.01572603
-0.045385644 0.022677638 -0.059614725 -0.015418842 -0.041351013 -0.04172255 -0.056978717 0.047837548
-0.00504297 0.04221063 0.020581692 -0.025645696 -0.008013524 0.026965037 -0.05999557 -0.0133798495
0.012266561 0.03635446 0.025642917 0.0014643222 0.055530958 -0.022077858 -0.04821405 -0.01866752
0.000702627 0.012088507 -0.04277037 -0.03135874 0.025019884 -0.005987443 -0.018962666 0.0022784323
0.02571331 0.054291733 -0.041557975 0.040014155 0.056410722 0.058243655 -0.022095352 -0.053107448
-0.005143687 0.019466348 -0.0070482492 0.016199619 -0.018739149 -0.040146664 0.03061802 -0.058529846
0.017883815 -0.040702365 0.047793515 0.002466403 -0.030853689 0.061174408 -0.042492025 -0.012066759
0.039815277 -0.049269922 0.023281664 0.037087113 -0.039237007 0.0068566054 -0.036916025 -0.046122923
0.018001027 -0.02815862 -0.05739493 -0.0056262985 -0.0038376823 -0.032074757 -0.04977975 0.060423695
0.028421506 0.05881153 0.0122355595 -0.036155917 0.049050033 0.053386115 0.016464122 -0.025721662
-0.059066087 -0.04611338 0.041682385 0.061675467 0.0076857656 0.021552756 0.06194321 0.040305935
-0.030931816 -0.03763978 0.05997452 -0.041136004 0.0075268745 -0.048611045 -0.044712953 -0.05452071
-0.016832061 0.0008829385 -0.019793272 0.047582917 0.04704363 -0.057708576 -0.013657607 -0.05830408
0.023875542 -0.01636576 0.053414665 -0.037965037 -0.04346192 0.0516586 -0.036792383 0.011841446
0.060587555 0.03448935 -0.028306462 0.025374852 -0.010065377 -0.00638739 0.0043778345 -0.0029467717
0.007192187 0.052932657 -0.048871644 0.053946033 0.008431919 0.020802118 0.007196553 -0.055191174
0.024895944 0.032041527 -0.007685095 -0.057755016 0.004980162 0.045430608 -0.012043446 -0.03614025
-0.037827343 -0.005991526 -0.023177959 -0.058599673 0.039895788 0.045724593 -0.03934233 0.041164145
0.031137824 0.02821476 -0.059833445 0.0003574118 -0.011913896 -0.029271841 -0.0095176175 -0.023923524
0.04286784 -0.0087834895 -0.03536886 -0.004682347 0.05172219 0.0011946559 -0.04919704 -0.031189494
-0.00023443997 -0.012589797 0.06197962 -0.0034842044 0.04341796 -0.027362071 -0.027417272 0.05490884
-0.009707935 -0.024456218 -0.037433878 -0.027651377 0.05607617 0.03766895 -0.026196644 -0.03210246
-0.03183627 -0.034114227 -0.056450456 -0.006700553 0.043014154 0.0025658086 -0.02579727 -0.05343239
-0.051733874 -0.008245438 -0.06240446 0.05813895 -0.04879821 -0.0016935319 -0.06159649 -0.011270829
0.03486771 0.060435884 0.00031393766 -0.036377765 0.0057496205 -0.05938743 0.011051394 0.041759178
0.0074777678 0.03405781 -0.056377262 0.046824247 -0.05518023 0.017262995 -0.017952584 -0.05824715
-0.038567998 0.027564839 0.011040315 0.014153995 0.052621365 -0.051212363 -0.01324299 0.013680242
0.04620681 0.021493427 0.061369658 -0.059844032 -0.054144584 0.026999936 0.034164324 0.024523593
-0.027780011 0.03461972 0.0391429 -0.015448682 0.058464997 -0.046314284 -0.0002424717 -0.054063424
0.058631465 -0.03466718 -0.037447073 -0.04530678 0.02395963 -0.010144569 -0.015336283 -0.009222917
0.05419147 0.04995949 -0.026320495 -0.027623765 0.01946073 -0.029143073 8.392334e-05 0.024656951
00000000: 3ed6 40bd 7859 7d3c 480b 373d 4000 863c
00000010: a8cd 15bd a0c8 e13b 3ac2 0b3d e0d3 803c
00000020: 4ce6 39bd 74c6 b93c 922e 74bd 509f 7cbc
00000030: ae5f 29bd 44e5 2abd 8462 69bd 4ef1 433d
00000040: 803f a5bb 0ee5 2c3d f09a a83c ec16 d2bc
00000050: 284b 03bc c8e5 dc3c eabd 75bd 2837 5bbc
00000060: b0f9 483c 6ae8 143d 1811 d23c 80ee bf3a
00000070: 6e74 633d a0dc b4bc 187c 45bd a0ec 98bc
00000080: 8030 383a e00e 463c fc2f 2fbd 0672 00bd
00000090: 80f6 cc3c 5032 c4bb 9857 9bbc c051 153b
000000a0: b8a4 d23c 0261 5e3d b238 2abd e2e5 233d
000000b0: ee0e 673d e690 6e3d 5001 b5bc 3287 59bd
000000c0: 608c a8bb e477 9f3c 00f5 e6bb 10b5 843c
000000d0: d882 99bc d470 24bd a4d2 fa3c febc 6fbd
000000e0: 1481 923c 86b7 26bd 22c3 433d 60a3 213b
000000f0: e0c0 fcbc 0492 7a3d 1e0c 2ebd a8b3 45bc
00000100: 5815 233d 42cf 49bd 30b9 be3c a8e8 173d
00000110: fcb6 20bd 60ad e03b 4235 17bd 64eb 3cbd
00000120: e476 933c e8ac e6bc f216 6bbd d05c b8bb
00000130: a081 7bbb d260 03bd dae5 4bbd d67e 773d
00000140: 38d4 e83c 5ce4 703d a877 483c 3a18 14bd
00000150: b0e8 483d 66ab 5a3d c4df 863c 3cb6 d2bc
00000160: 48ef 71bd 62e1 3cbd 26bb 2a3d 6a9f 7c3d
00000170: e0d8 fb3b 688f b03c 2ab8 7d3d d617 253d
00000180: b864 fdbc 2c2c 1abd d8a7 753d 3a7e 28bd
00000190: 00a4 f63b 601c 47bd ee24 37bd 1c51 5fbd
000001a0: 64e3 89bc 0075 673a 8025 a2bc 4ee6 423d
000001b0: d2b0 403d d45f 6cbd 28c4 5fbc 42d0 6ebd
000001c0: a496 c33c 7c11 86bc 56c9 5a3d 3a81 1bbd
000001d0: 2005 32bd f897 533d 9cb3 16bd a002 423c
000001e0: a82a 783d b444 0d3d f4e2 e7bc ecde cf3c
000001f0: 40e9 24bc 504d d1bb f073 8f3b a01e 41bb
00000200: 70ac eb3b eacf 583d a22d 48bd 84f6 5c3d
00000210: 0826 0a3c 3469 aa3c 10d1 eb3b 2410 62bd
00000220: 94f2 cb3c fa3d 033d 40d3 fbbb 8690 6cbd
00000230: a030 a33b 7215 3a3d e051 45bc cc07 14bd
00000240: d8f0 1abd 9054 c4bb b4df bdbc 3606 70bd
00000250: c469 233d b649 3b3d 6c25 21bd bc9b 283d
00000260: c014 ff3c a422 e73c ea13 75bd 0063 bb39
00000270: 8032 43bc 80cb efbc c8ef 1bbc 44fb c3bc
00000280: 3096 2f3d a0e8 0fbc f0de 10bd 606e 99bb
00000290: a6da 533d 0096 9c3a d682 49bd 1c81 ffbc
000002a0: 00d4 75b9 7045 4ebc 58de 7d3d 4057 64bb
000002b0: 08d7 313d 6c26 e0bc 309a e0bc 18e8 603d
000002c0: 080e 1fbc 6858 c8bc 4454 19bd 2485 e2bc
000002d0: 20b0 653d c24a 1a3d 589a d6bc de7d 03bd
000002e0: c066 02bd 5cbb 0bbd 9838 67bd 5090 dbbb
000002f0: 9c2f 303d 2027 283b cc54 d3bc ecdb 5abd
00000300: e6e6 53bd e017 07bc d29b 7fbd 1c23 6e3d
00000310: a2e0 47bd 80f9 ddba 9a4c 7cbd 48a9 38bc
00000320: 72d1 0e3d 9e8b 773d 0098 a439 da00 15bd
00000330: 5067 bc3b 3c40 73bd e810 353c ac0b 2b3d
00000340: 1008 f53b 3480 0b3d d8eb 66bd c8ca 3f3d
00000350: aa04 62bd 206b 8d3c 4c11 93bc 9094 6ebd
00000360: 7af9 1dbd a8cf e13c 70e2 343c 28e6 673c
00000370: 8089 573d 0ec4 51bd 20f9 58bc 1823 603c
00000380: 5a43 3d3d fc12 b03c c05e 7b3d 041f 75bd
00000390: b6c6 5dbd f82e dd3c e4ef 0b3d b4e5 c83c
000003a0: e892 e3bc 68cd 0d3d 4e54 203d 781c 7dbc
000003b0: fe78 6f3d 0cb4 3dbd 0040 7eb9 9c71 5dbd
000003c0: 8c27 703d 2cff 0dbd 1a62 19bd 9a93 39bd
000003d0: fc46 c43c 6835 26bc 0845 7bbc b81b 17bc
000003e0: e0f7 5d3d 52a2 4c3d 149e d7bc 3c4b e2bc
000003f0: 1c6c 9f3c 74bd eebc 0000 b038 60fd c93c

policy.0.weight f4 [256, 256]
-0.02275525 -0.021768987 0.034214653 0.045257643 0.04151512 0.041841015 0.060861163 0.027892716
0.04438477 0.007984318 -0.0398478 0.036350526 -0.04297433 0.0021892637 0.042875066 -0.033729628
0.0067521855 -0.054752916 0.049728885 -0.021389887 0.03691674 -0.03214979 0.036144473 -0.048934035
0.0586207 0.004760891 0.03889548 -0.046946697 -0.019040346 0.037376486 0.048471913 -0.021397218
0.037226945 -0.018300705 0.015155807 0.05024205 -0.053022154 0.031662367 -0.002514474 0.0011779368
0.0010634735 0.029518522 0.023923658 -0.06032124 -0.028591633 -0.030884184 -0.0038543716 0.06107886
-0.027592324 -0.02095306 0.026032753 0.06096492 0.04166227 0.057072245 -0.056116045 0.033509776
0.038893797 -0.052663274 0.04651481 -0.028068416 -0.022945926 -0.013595432 0.001598075 0.019358285
0.014885351 0.018774599 -0.01916036 -0.0084320605 0.019909322 0.054923974 -0.01639206 -0.04106942
0.0046677142 0.043551825 0.062398925 0.039156727 0.03524228 0.020157337 -0.015669547 0.037182912
0.009649798 -0.0029715598 0.040241577 -0.04228854 -0.062002957 -0.019984506 -0.0351177 -0.0008098036
-0.013559155 0.043856055 -0.051614217 0.0040792674 -0.020366468 -0.0341051 -0.040665045 -0.05885207
-0.022466697 -0.0072253644 0.042860635 0.05973959 -0.05909895 0.0018587485 -0.012025714 -0.035345547
0.01563055 -0.0081074685 0.011159457 -0.047887422 0.008043878 -0.0565134 -0.058591254 0.04648424
-0.0066519976 0.054832272 0.051089063 0.05828221 -0.056658126 -0.03882461 -0.0017820448 -0.05691114
-0.04154156 0.0077568814 -0.015236422 0.0040595904 -0.05263406 0.054981746 -0.03883984 -0.038667634
0.056007743 -0.031587563 -0.020213254 0.059371978 -0.0034779757 -0.05828686 0.053722583 0.029210791
-0.023994192 -0.056574866 -0.058778748 0.010929599 -0.032847337 -0.017680138 -0.04937973 0.033819735
0.0052457005 0.003947504 0.005427599 0.0054386184 0.032638744 0.0338955 -0.044881955 -0.028707378
0.030307412 -0.046677224 0.008757502 0.03791771 -0.04292205 -0.008434735 0.006151572 -0.05729408
-0.053230673 -0.019858219 -0.061131097 0.008467771 -0.050021984 -0.044986777 0.060088128 0.008173227
-0.030877694 0.024900727 0.06002663 -0.0344138 -0.05600466 0.008529671 0.021577984 0.0612922
0.05514755 0.050289012 -0.036117524 0.03483794 -0.034336932 0.027990237 0.021397471 -0.051501654
0.060035206 -0.01581765 -0.052198187 -0.041391082 -0.04516471 -0.05919022 0.038135074 0.041095786
0.018001653 -0.028317384 0.0070419163 -0.023360223 -0.041543104 0.031098522 -0.06078028 -0.05792494
0.055255912 -0.005769819 0.056140542 0.05603137 0.053719863 0.05823072 -0.0038006306 -0.010972433
0.009996034 -0.058032088 -0.025683045 0.016745515 0.0016379058 -0.04018332 0.0067154616 -0.05850941
0.058800124 -0.013884492 -0.04997976 0.0035321862 0.0061669126 0.04084201 0.022245578 0.0026155114
0.025793307 0.011338122 -0.019118682 -0.00016251951 -0.015449524 -0.013841189 -0.0155822635 -0.049042866
-0.010649413 -0.045355096 0.053301327 0.02975262 -0.003818348 0.02201391 0.039480664 -0.04735378
-0.061385244 0.04469827 0.00028023124 -0.03754005 -0.046365626 -0.02841103 -0.044566683 0.04469713
0.040862545 0.05270251 -0.050158836 0.036511265 -0.022800587 0.041669644 0.045670383 0.0428508
00000000: 3869 babc e054 b2bc aa24 0c3d 1460 393d
00000010: c20b 2a3d 7c61 2b3d 8e49 793d 447f e43c
00000020: cecc 353d a8d0 023c 7237 23bd 4ae4 143d
00000030: da05 30bd c079 0f3b c49d 2f3d 1428 0abd
00000040: 7041 dd3b 9844 60bd 84b0 4b3d d839 afbc
00000050: 0236 173d 80af 03bd 3a0c 143d 0e6f 48bd
00000060: 421c 703d 4001 9c3b de50 1f3d 2e4b 40bd
00000070: 80fa 9bbc 1618 193d 7c8a 463d 3849 afbc
00000080: 487b 183d 5ceb 95bc 1050 783c 9cca 4d3d
00000090: c22d 59bd 66b0 013d e0c9 24bb 0065 9a3a
000000a0: 4064 8b3a d4d0 f13c 8cfb c33c 6813 77bd
000000b0: 0039 eabc d400 fdbc a099 7cbb d42d 7a3d
000000c0: 4c09 e2bc c0a5 abbc a442 d53c 5ab6 793d
000000d0: 0ea6 2a3d 96c4 693d f0d9 65bd 8c41 093d
000000e0: 1a4f 1f3d 72b5 57bd 5086 3e3d bcef e5bc
000000f0: 18f9 bbbc 60bf 5ebc 8076 d13a 4495 9e3c
00000100: b0e1 733c 30cd 993c 30f6 9cbc a026 0abc
00000110: e018 a33c f6f7 603d a448 86bc 6838 28bd
00000120: a0f3 983b 6663 323d 0496 7f3d ce62 203d
00000130: 365a 103d 0021 a53c 6c5d 80bc 1c4d 183d
00000140: 301a 1e3c 80be 42bb 5ad4 243d c036 2dbd
00000150: d0f6 7dbd 8cb6 a3bc 94d7 0fbd 0049 54ba
00000160: 3827 5ebc 68a2 333d 6e69 53bd 60ab 853b
00000170: 94d7 a6bc cab1 0bbd 6490 26bd de0e 71bd
00000180: 140c b8bc c0c2 ecbb a28e 2f3d 80b1 743d
00000190: be11 72bd 40a1 f33a 8007 45bc 7ec6 10bd
000001a0: a40b 803c 30d5 04bc 28d6 363c 9a25 44bd
000001b0: 78ca 033c 987a 67bd 62fd 6fbd 4266 3e3d
000001c0: 00f9 d9bb ce97 603d c442 513d 54b9 6e3d
000001d0: 5a12 68bd 8e06 1fbd 8093 e9ba a81b 69bd
000001e0: 7c27 2abd 702d fe3b 30a2 79bc 5006 853b
000001f0: d096 57bd 8a34 613d 8616 1fbd f461 1ebd
00000200: 6068 653d f661 01bd 4496 a5bc 0830 733d
00000210: c0ee 63bb 34be 6ebd 360c 5c3d 784b ef3c
00000220: 788f c4bc 0cbb 67bd fcc1 70bd 1012 333c
00000230: ee8a 06bd f0d5 90bc 6642 4abd 9086 0a3d
00000240: 20e4 ab3b 105a 813b 00da b13b 7036 b23b
00000250: 34b0 053d 02d6 0a3d 24d6 37bd bc2b ebbc
00000260: 4047 f83c 9e30 3fbd a07b 0f3c 9a4f 1b3d
00000270: 08cf 2fbd d831 0abc 2093 c93b 32ad 6abd
00000280: 6808 5abd b4ad a2bc 9a64 7abd 68bc 0a3c
00000290: dae3 4cbd 0e44 38bd f81e 763d 00e9 053c
000002a0: 38f3 fcbc 9cfc cb3c 7cde 753d 7cf5 0cbd
000002b0: 2465 65bd 08c0 0b3c 50c4 b03c 880d 7b3d
000002c0: 66e2 613d dafb 4d3d f8ef 13bd 3ab2 0e3d
000002d0: e2a4 0cbd c84b e53c c049 af3c 66f3 52bd
000002e0: 7ae7 753d 0494 81bc c4cd 55bd b289 29bd
000002f0: a2fe 38bd 7271 72bd 8633 1c3d 0e54 283d
00000300: 3478 933c dcf9 e7bc e0bf e63b f05d bfbc
00000310: 1a29 2abd 54c2 fe3c bef4 78bd b442 6dbd
00000320: 0654 623d c010 bdbb a0f3 653d 2681 653d
00000330: 5c09 5c3d 5683 6e3d 0014 79bb b8c5 33bc
00000340: 68c6 233c 0eb3 6dbd 4065 d2bc e42d 893c
00000350: 00af d63a 4497 24bd 600d dc3b 90a7 6fbd
00000360: 66d8 703d c87b 63bc 94b7 4cbd 407c 673b
00000370: d013 ca3b f449 273d 5c3c b63c 0069 2b3b
00000380: 7c4c d33c 88c3 393c c89e 9cbc 006a 2ab9
00000390: 0020 7dbc 28c6 62bc c04c 7fbc 2ce1 48bd
000003a0: e07a 2ebc 44c6 39bd 7e52 5a3d c4bb f33c
000003b0: 403d 7abb 8456 b43c 7ab6 213d 0af6 41bd
000003c0: 186f 7bbd 8815 373d 00ec 9239 98c3 19bd
000003d0: e2e9 3dbd 40be e8bc 8e8b 36bd 5614 373d
000003e0: 7c5f 273d 96de 573d 5a73 4dbd d68c 153d
000003f0: 4cc8 babc caad 2a3d de10 3b3d 5284 2f3d

policy.0.bias f4 [256]
-0.031559795 -0.05199164 0.030754477 0.039220154 -0.025479257 0.034221053 0.016236521 -0.039489925
0.05725131 0.055378877 0.015959024 0.037943862 -0.01400362 -0.044784434 0.010575578 -0.019584775
-0.034342162 -0.0073034167 0.023975924 -0.027866602 -0.008244522 0.05951327 0.01934746 0.041132674
0.031227231 0.018801004 -0.06143187 0.058600612 0.05892332 -0.00812009 -0.014804341 0.06248065
-0.020758666 0.051666304 -0.03256897 0.060845487 -0.009118661 -0.050334886 -0.0089267045 0.024225146
-0.029985607 0.03956835 0.036090866 0.04079943 -0.04513941 0.016683675 -0.012770362 -0.023355715
-0.012217402 -0.008600883 0.04324396 -0.007613018 -0.018070891 0.03845658 0.030201204 -0.021700762
0.034256056 0.04677151 0.008743405 0.032036692 0.050446324 0.012686811 -0.056953244 -0.006759919
-0.02449634 0.056245618 0.025297306 0.04808198 -0.061588727 0.024013571 0.034749217 0.060228817
0.021667555 -0.034070127 0.019693553 0.026406594 0.026981495 0.050701648 0.020987682 -0.042621158
-0.04085414 -0.0018788725 -0.032008372 0.031239606 0.033830293 0.0027814433 0.016046867 -0.024545752
-0.046555772 -0.002301231 -0.050153397 -0.051133156 -0.037412696 0.062302522 -0.0016080663 0.02105888
0.021757133 -0.05258348 0.048174694 0.023636438 -0.04616107 0.032985285 -0.026251003 0.003672339
-0.014331713 0.018641375 0.032501504 -0.0075605586 0.05989276 0.061688997 -0.006876819 0.001175262
-0.0053919777 0.034613132 -0.024567828 -0.006553538 0.004779212 0.012809306 -0.022008434 -0.028906964
-0.009531595 -0.0462332 0.010643549 -0.03536228 0.011787847 -0.0501981 0.049135588 0.05015117
-0.045006134 0.032205157 0.007914394 -0.049697794 0.028004363 0.041270122 -0.023133583 0.0036591366
0.040392995 0.0514803 -0.054960564 -0.010451928 -0.047305293 0.036644205 0.040975444 -0.03431084
0.022113927 -0.03334131 0.008296594 -0.058860853 0.0105692 -0.0029446408 0.050319277 0.06119567
0.028569117 0.038998917 0.04498399 -0.0007113889 -0.0098097995 -0.01379174 -0.02291771 -0.062317558
-0.04929226 0.02836711 -0.026732452 -0.05545003 -0.05417499 -0.007712379 -0.03488762 -0.035980202
0.016539156 -0.009763859 0.026775345 0.0587364 -0.059443854 -0.052690394 0.018176354 0.058297746
-0.012836397 0.012207776 0.020541325 0.0036743358 0.051402263 0.020572007 -0.039674565 -0.029863238
-0.016668953 -0.023409985 -0.040492952 0.06119982 -0.023267128 0.011265285 0.062417716 -0.05975285
-0.0034198314 0.0031640828 -0.006605409 0.0072310045 -0.030895464 -0.0010490566 -0.012157351 -0.049111687
0.04632669 0.012551285 -0.02656433 0.002798356 -0.03834314 -0.008837849 0.0145741105 0.02504719
0.029883318 0.0025597438 0.044950992 -0.031732515 0.0101500675 -0.03045407 0.004552342 0.027339004
-0.023669288 0.02456484 0.021573484 0.035851963 -0.0409261 0.06110254 -0.027219862 -0.052791215
0.05568573 -0.02416522 0.013075918 0.055855803 -0.028504372 -0.042500973 -0.020493045 0.04311301
-0.008810237 0.021813042 0.012586214 -0.02515246 0.023535475 0.0042941496 -0.035036363 -0.020715952
0.047323585 0.05700387 0.0060160533 0.0053031296 0.034842856 0.022414811 0.010234766 0.03961967
-0.06049943 0.009542584 -0.037516892 0.056309544 -0.050805315 -0.0352737 0.018117592 0.061907165
00000000: d844 01bd 30f5 54bd d0f0 fb3c 50a5 203d
00000010: e0b9 d0bc 602b 0c3d 7402 853c 30c0 21bd
00000020: 5a80 6a3d f6d4 623d 80bc 823c 066b 1b3d
00000030: 706f 65bc e26f 37bd 3045 2d3c 4070 a0bc
00000040: 5eaa 0cbd 8051 efbb 2869 c43c 8048 e4bc
00000050: 0814 07bc 30c4 733d 907e 9e3c bc7a 283d
00000060: 40d0 ff3c 9004 9a3c fc9f 7bbd 3207 703d
00000070: 9459 713d 200a 05bc e88d 72bc b6eb 7f3d
00000080: 140e aabc 0ca0 533d 0a67 05bd 1e39 793d
00000090: 7066 15bc f42b 4ebd 5041 12bc d073 c63c
000000a0: 60a4 f5bc 6c12 223d 04d4 133d 4e1d 273d
000000b0: 1ae4 38bd 34ac 883c c83a 51bc 7c54 bfbc
000000c0: 802b 48bc b8ea 0cbc 9420 313d a076 f9bb
000000d0: 6809 94bc a684 1d3d 8468 f73c ccc5 b1bc
000000e0: 1450 0c3d 7c93 3f3d 8040 0f3c e838 033d
000000f0: cea0 4e3d 58dc 4f3c ce47 69bd 5082 ddbb
00000100: 8cac c8bc ce61 663d 4c3c cf3c 9cf1 443d
00000110: 7644 7cbd 1cb8 c43c 3255 0e3d 7eb2 763d
00000120: 2880 b13c 1e8d 0bbd 6054 a13c a452 d83c
00000130: 4c08 dd3c 88ac 4f3d 5cee ab3c 8693 2ebd
00000140: ac56 27bd 8044 f6ba 361b 03bd 34ea ff3c
00000150: a291 0a3d e048 363b b874 833c 2c14 c9bc
00000160: 44b1 3ebd 40d0 16bb a66d 4dbd 0071 51bd
00000170: 0e3e 19bd ee30 7f3d c0c5 d2ba ac83 ac3c
00000180: 043c b23c c661 57bd d452 453d 34a1 c13c
00000190: 6413 3dbd 941b 073d 580c d7bc a0ab 703b
000001a0: 90cf 6abc ccb5 983c 4c20 053d 90be f7bb
000001b0: 1c52 753d 9aad 7c3d f056 e1bb 400b 9a3a
000001c0: 30af b0bb 80c6 0d3d 7842 c9bc 10bf d6bb
000001d0: f09a 9c3b 20de 513c 084b b4bc 4cce ecbc
000001e0: 682a 1cbc 065f 3dbd 4862 2e3c 0ad8 10bd
000001f0: d021 413c 869c 4dbd 6642 493d 506b 4d3d
00000200: 5a58 38bd 8ee9 033d 60ab 013c ea8f 4bbd
00000210: 6869 e53c dc0a 293d a482 bdbc 20ce 6f3b
00000220: 2073 253d 02dd 523d 541e 61bd 903e 2bbc
00000230: 32c3 41bd 3c18 163d ded5 273d 8689 0cbd
00000240: 4428 b53c e690 08bd 70ee 073c 1418 71bd
00000250: 702a 2d3c e0fa 40bb 961b 4e3d 50a8 7a3d
00000260: c809 ea3c 54bd 1f3d 2241 383d 807c 3aba
00000270: 48b9 20bc c0f6 61bc ecbd bbbc b240 7fbd
00000280: aee6 49bd 2462 e83c 04fe dabc 921f 63bd
00000290: 98e6 5dbd 20b8 fcbb 52e6 0ebd fa5f 13bd
000002a0: 207d 873c 98f8 1fbc f857 db3c 9495 703d
000002b0: 667b 73bd e2d1 57bd 94e6 943c 9ec9 6e3d
000002c0: c04f 52bc 2003 483c 4846 a83c 20cd 703b
000002d0: 2e8b 523d a086 a83c cc81 22bd c0a3 f4bc
000002e0: 548d 88bc 4cc6 bfbc f0db 25bd aaac 7a3d
000002f0: b49a bebc 0892 383c b8a9 7f3d 68bf 74bd
00000300: 401f 60bb 805c 4f3b 3072 d8bb 10f2 ec3b
00000310: 7c18 fdbc 8080 89ba a02f 47bc 5629 49bd
00000320: 0ec1 3d3d e8a3 4d3c 709d d9bc a064 373b
00000330: b20d 1dbd a0cc 10bc 40c8 6e3c c42f cd3c
00000340: dccd f43c 60c1 273b 881e 383d f4f9 01bd
00000350: 784c 263c d07a f9bc d02b 953b 0cf6 df3c
00000360: 18e6 c1bc 343c c93c e0ba b03c 82d9 123d
00000370: 20a2 27bd a846 7a3d 30fc debc 9a3b 58bd
00000380: b816 643d 24f6 c5bc 603c 563c 0ec9 643d
00000390: 0082 e9bc 8015 2ebd 08e1 a7bc 4497 303d
000003a0: d058 10bc 44b1 b23c 6836 4e3c 880c cebc
000003b0: 78cd c03c f0b5 8c3b 4a82 0fbd 80b4 a9bc
000003c0: 60d6 413d e47c 693d 5022 c53b e0c5 ad3b
000003d0: 62b7 0e3d 449f b73c b8af 273c 3c48 223d
000003e0: 40ce 77bd 8058 1c3c 50ab 19bd d6a4 663d
000003f0: 3c19 50bd 287b 10bd 586b 943c 5e92 7d3d

policy.2.weight f4 [5, 256]
-0.0052302554 -0.032757387 0.04636275 -0.04327421 0.055917807 0.035046384 -0.045114353 0.054420568
0.026449338 -0.034380853 -0.039959334 0.023135163 -0.0033933222 -0.0045080706 -0.004309885 0.03715232
0.04278025 -0.035416193 -0.05945979 -0.01564432 0.059957087 0.026697077 -0.06059429 0.024729908
-0.035821557 -0.0095516145 -0.059907354 -0.059503704 0.02770666 -0.055845372 0.029345453 -0.033707358
-0.055723414 -0.03050647 0.007438779 0.027093798 0.043137938 0.0110661015 0.0019135028 -0.03705223
-0.05344537 -0.037991203 -0.05032587 0.052129664 -0.06073822 0.013192162 0.02520015 0.037745237
-0.053417675 0.048934452 -0.017216459 0.01475966 0.018986955 0.03465335 -0.046690024 -0.0507615
-0.028350055 -0.054005235 0.021299727 -0.0459193 -0.037745558 0.013133563 -0.028561391 -0.0482841
0.023549482 0.04637146 -0.023961157 0.037665688 -0.059427775 0.032722987 -0.02319283 0.031755
0.0021124035 0.025091484 0.032591768 0.010416314 -0.028871916 0.014587082 -0.002304934 -0.012434669
-0.05762528 0.03646058 -0.018500693 0.01511053 0.0036978722 -0.046606235 0.036275327 0.0043582097
0.049791314 -0.03565959 0.042791285 0.016528994 0.05228076 0.007784009 -0.0010753721 0.04445474
0.038649328 0.011570632 -0.04669276 -0.006540723 0.010728344 0.026267804 -0.059550762 0.025859587
0.029222682 0.05233468 -0.06129527 -0.0150792375 0.015460342 0.027796052 0.031107992 0.057412058
0.028896444 0.013937511 -0.006513819 -0.020693772 -0.00644581 -0.051630534 -0.059264064 -0.022312924
-0.036100157 -0.059789583 0.0033576041 -0.046061628 -0.052486204 -0.014669605 -0.008297272 0.057570554
0.058853753 0.029024646 0.022815533 0.017721333 -0.0037308633 -0.05437302 0.034609593 0.013912663
0.022738338 -0.056374513 0.01901064 0.058000214 -0.057403423 0.014126167 0.018241182 -0.059144035
-0.054905728 -0.04385113 0.032143496 -0.04891543 -0.05235938 -0.017957352 -0.0054188073 0.030507557
-0.03984978 -0.0043988004 0.05070383 -0.0070908144 -0.05199623 0.053193778 -0.0034295693 -0.03699147
-0.00618618 -0.0013068244 -0.053107224 -0.027359322 -0.0033370927 -0.0541377 0.019621946 0.05650407
-0.05912488 -0.049259096 0.060706355 0.02231574 -0.04550655 -0.02454999 0.050421745 -0.049048238
-0.023022935 0.0427747 -0.057190567 -0.03804685 0.043020017 -0.012056179 -0.02604106 0.054187216
0.033444144 0.04157003 -0.035840325 -0.013651662 -0.040195838 -0.026721843 -0.040623605 -0.007388562
-0.042237237 -0.007670082 0.019276485 -0.026489481 -0.0073514283 -0.008815721 0.038869433 -0.02613525
0.06030505 9.331852e-05 0.038757548 0.014863536 -0.016149454 -0.032014795 0.04841443 -0.018026583
-0.05710157 0.054743 0.028080784 0.035215944 -0.039592005 0.009965226 -0.042302534 -0.039399706
-0.056788355 -0.0021392778 -0.006150216 -0.059058063 -0.012271211 -0.060429923 0.03441768 0.051109597
0.06030737 -0.012062386 -0.04241947 0.025684156 0.0010149702 -0.018350497 -0.01893977 -0.0024322793
0.005072966 -0.0100611895 -0.053657606 0.060588762 -0.04865265 0.026404738 0.00070475787 -0.058845557
0.049039595 -0.010950461 0.012494735 -0.054222763 -0.03011126 0.039101414 -0.050852604 -0.038019456
0.020769037 -0.009272426 0.027192153 -0.022705942 0.041950077 -0.05581069 0.040553294 -0.025097296
00000000: 9062 abbb 9c2c 06bd dee6 3d3d 4c40 31bd
00000010: 120a 653d cc8c 0f3d d4c9 38bd 1ae8 5e3d
00000020: 48ac d83c f0d2 0cbd 66ac 23bd f485 bd3c
00000030: 8062 5ebb 70b8 93bb f039 8dbb 082d 183d
00000040: 583a 2f3d 9210 11bd 1c8c 73bd 8428 80bc
00000050: 9095 753d d4b3 da3c b831 78bd 6096 ca3c
00000060: a0b9 12bd 607e 1cbc 6a61 75bd 28ba 73bd
00000070: 14f9 e23c 1ebe 64bd e065 f03c ba10 0abd
00000080: 3c3e 64bd b4e8 f9bc 00c1 f33b d0f3 dd3c
00000090: 68b1 303d 984e 353c 80ce fa3a 14c4 17bd
000000a0: 88e9 5abd aa9c 1bbd 8022 4ebd ea85 553d
000000b0: a4c8 78bd f023 583c 8c70 ce3c c09a 1a3d
000000c0: 7ecc 5abd 7e6f 483d 8809 8dbc 80d2 713c
000000d0: 888a 9b3c acf0 0d3d 0a3e 3fbd 4aeb 4fbd
000000e0: 603e e8bc 9834 5dbd c47c ae3c e015 3cbd
000000f0: 169b 1abd 282e 573c 94f9 e9bc 8cc5 45bd
00000100: d8ea c03c 00f0 3d3d 304a c4bc 5647 1a3d
00000110: 8a6a 73bd 8a08 063d e4fe bdbc 8811 023d
00000120: 4070 0a3b a88c cd3c f27e 053d 30a9 2a3c
00000130: cc84 ecbc a8fe 6e3c 600e 17bb c8ba 4bbc
00000140: 7c08 6cbd b057 153d c48e 97bc 2892 773c
00000150: 0058 723b 2ee6 3ebd 7095 143d 50cf 8e3b
00000160: faf1 4b3d ca0f 12bd ea45 2f3d d067 873c
00000170: 5a24 563d 0011 ff3b 80f3 8cba 2c16 363d
00000180: c24e 1e3d c092 3d3c e840 3fbd 9053 d6bb
00000190: f0c5 2f3c 942f d73c 80eb 73bd 7cd7 d33c
000001a0: 6864 ef3c e45c 563d c010 7bbd e80e 77bc
000001b0: 604d 7d3c 8cb4 e33c 30d6 fe3c e828 6b3d
000001c0: 3cb8 ec3c 285a 643c e071 d5bb fc85 a9bc
000001d0: 6037 d3bb 8a7a 53bd e0be 72bd 98c9 b6bc
000001e0: c2dd 13bd ece5 74bd 400b 5c3b 1eab 3cbd
000001f0: c6fb 56bd c858 70bc 48f1 07bc 1acf 6b3d
00000200: a210 713d 18c5 ed3c a4e7 ba3c 542c 913c
00000210: 8081 74bb 3eb6 5ebd cac2 0d3d f0f1 633c
00000220: c045 ba3c f6e8 66bd 34bc 9b3c a291 6d3d
00000230: da1f 6bbd 7071 673c 886e 953c 0441 72bd
00000240: d4e4 60bd 3e9d 33bd e6a8 033d 8c5b 48bd
00000250: ca76 56bd 4c1b 93bc 4090 b1bb fcea f93c
00000260: 8639 23bd d023 90bb d2ae 4f3d 105a e8bb
00000270: 00fa 54bd b8e1 593d a0c2 60bb 5e84 17bd
00000280: 70b5 cabb c049 abba f686 59bd a820 e0bc
00000290: 20b3 5abb 7ebf 5dbd 34be a03c d070 673d
000002a0: ee2c 72bd e8c3 49bd 3aa7 783d 80cf b63c
000002b0: 1465 3abd 101d c9bc 0887 4e3d cee6 48bd
000002c0: 989a bcbc 8634 2f3d a840 6abd 04d7 1bbd
000002d0: c235 303d 4887 45bc 1054 d5bc 6af3 5d3d
000002e0: bafc 083d 5645 2a3d 4ecd 12bd 38ab 5fbc
000002f0: 64a4 24bd c4e7 dabc f064 26bd c01b f2bb
00000300: f400 2dbd 5055 fbbb b8e9 9d3c 7800 d9bc
00000310: 40e4 f0bb d06f 10bc 8e35 1f3d 9819 d6bc
00000320: 6e02 773d 00b4 c338 3cc0 1e3d 3086 733c
00000330: dc4b 84bc f221 03bd 364e 463d 7cac 93bc
00000340: 56e3 69bd 323a 603d ac09 e63c 983e 103d
00000350: 3a2b 22bd 3045 233c 6c45 2dbd 9661 21bd
00000360: e89a 68bd 2033 0cbb c087 c9bb dee6 71bd
00000370: 300d 49bc 5e85 77bd 8ef9 0c3d 4c58 513d
00000380: dc04 773d 50a1 45bc 0ac0 2dbd 9467 d23c
00000390: c008 853a c853 96bc 9427 9bbc e066 1fbb
000003a0: 203b a63b b0d7 24bc 14c8 5bbd ec2b 783d
000003b0: 0048 47bd c04e d83c 80bf 383a 0a08 71bd
000003c0: bedd 483d 9069 33bc b8b6 4c3c b018 5ebd
000003d0: e4ab f6bc ce28 203d d24a 50bd 4aba 1bbd
000003e0: d423 aa3c 60eb 17bc 14c2 de3c d001 babc
000003f0: d8d3 2b3d c099 64bd 361b 263d d898 cdbc

policy.2.bias f4 [5]
-0.015008315 -0.0012975112 -0.048393644 -0.05571998 0.02396074
00000000: 70e5 75bc 4011 aaba 6a38 46bd a23a 64bd
00000010: 5049 c43c
