checkpoints/PPO_CLIP_episode_0.pt (torch, 856930 bytes, 11 tensors)

shared.0.weight f4 [256, 54]
000000 41 4d db bc 71 b4 56 bc 00 1b f8 3b a2 17 ae bd
       -0.026770236 -0.013104544 0.007571578 -0.08500601
000010 ab 20 4c bd c9 3c 40 bd d0 94 37 bd 72 25 01 bd
       -0.049835842 -0.04693297 -0.044819653 -0.03152985
000020 95 be b4 3d 0d 88 60 bd e9 7f f3 bd 33 89 8e bd
       0.08825413 -0.054817248 -0.11889631 -0.069597624
000030 7a 64 3e bd 04 cc 73 3d 44 b6 89 3d c2 44 b6 bd
       -0.04648254 0.059520736 0.067242175 -0.08899833
000040 28 9f 04 3e 99 9b 4e 3d e7 c8 73 3d 4e 46 a1 bd
       0.12951338 0.05044136 0.059517767 -0.07874738
000050 24 bc 49 bd 07 b1 0c 3b d8 17 2f bd 09 06 62 3d
       -0.04925169 0.0021467821 -0.04274735 0.055181537
000060 70 e8 31 bd 7a 8a 85 3d 61 bc ba 3b 1c 7d 9b 3d
       -0.04343456 0.06520553 0.005698726 0.07592222
000070 92 f0 70 bd 92 87 89 bd 25 f7 36 bd 38 eb 30 bd
       -0.058823176 -0.06715311 -0.04466929 -0.043193072
000080 f9 66 b3 bd ef 7b 5c bc 9d 35 ca 3c 8c 2b 03 be
       -0.08759875 -0.013457282 0.024683768 -0.1280958
000090 1f a6 df bd cc 95 88 3d d4 37 0a be a6 fa a1 bd
       -0.10920357 0.066691965 -0.13497859 -0.079091355
0000a0 7c e1 1a 3d 81 4a 05 be 7b 15 4d bc 63 03 a4 3b
       0.037812695 -0.13016702 -0.012517328 0.0050052865
0000b0 ad f7 84 bc b9 9c 01 3d e5 9d c1 bd 46 f4 d3 bd
       -0.016231382 0.031643603 -0.09453944 -0.10349326
0000c0 56 68 02 3d d8 08 f1 3d 76 12 f4 3d 70 d7 36 bc
       0.031837784 0.11769265 0.11917584 -0.011159763
0000d0 42 30 f9 bd 66 57 95 3c 61 66 35 3c 24 13 e6 bc
       -0.121674076 0.018230151 0.011071772 -0.028085299
0000e0 56 9b e2 bc 70 d9 b5 bd e3 ce 22 bd 9f 12 91 bc
       -0.02766196 -0.088793635 -0.039748084 -0.017709075
0000f0 54 fb 0c 3c 90 0b a9 bd 0d f6 59 bd bb bc 30 bd
       0.008604843 -0.082541585 -0.053213168 -0.043148737
000100 f6 69 0a 3e 3e 0c d7 3d 36 39 dc 3d 09 0b 3b bd
       0.13516983 0.10500382 0.107530996 -0.04566482
000110 4d 0b f1 bd b1 b8 ef bd 80 6f e5 bd 34 74 ee 3d
       -0.117697336 -0.11705149 -0.112029076 0.11643258
000120 b7 e8 e5 3d 40 48 58 bd 76 46 f8 3d b5 f2 e6 3d
       0.112260275 -0.052803278 0.12122814 0.112767614
000130 c0 1b 2b 3d 33 35 4f 3d 82 c8 bd 3d 3f 5c 0f bd
       0.04177451 0.050587844 0.092667595 -0.035000082
000140 f0 96 a6 3d 70 33 7d 3d a2 44 ec 3d 7e 9f 09 be
       0.08134258 0.061816633 0.11536528 -0.13439748
000150 30 5a fa 3d e6 79 5d 3d 17 e5 e3 3d d6 89 0c bd
       0.12224233 0.05407133 0.1112768 -0.034311138
000160 84 1a c1 bb 50 2a d5 bd c5 ba d6 bd cd 78 05 be
       -0.0058930535 -0.10408461 -0.10484842 -0.13034363
000170 1e 92 c0 3d 39 20 1c 3d 1d ec ea 3c ef 42 53 bd
       0.0940287 0.038116667 0.02867704 -0.051577505
000180 ce 5f a3 3d df 3e 1e 3d 59 f1 1c bb 0a 2f 07 3d
       0.07977258 0.038634177 -0.0023947565 0.033003844
000190 3c 4f 07 be aa 6d 1b bd b5 6c 76 3d fb 5e 2f bd
       -0.1321382 -0.03794638 0.060162265 -0.04281519
0001a0 db 4a ea 3d 78 15 08 3e 38 99 d2 bd b5 9f af 3b
       0.11440059 0.1328944 -0.102831304 0.0053596147
0001b0 2d b5 e5 38 64 c6 80 3c ea 7e 98 3d 07 39 f0 3c
       0.000109533175 0.0157196 0.07446082 0.029324068
0001c0 6d b0 ce bd 0a 35 09 be 6b c2 e2 bd 74 a7 54 3d
       -0.10092244 -0.13399139 -0.110722385 0.05191751
0001d0 11 53 d3 bd c4 81 20 3d 8c 5a 48 bd 12 54 c7 3d
       -0.10318578 0.039186254 -0.048914477 0.09732832
0001e0 5b 3c d1 bd 79 bb 45 bd 19 18 04 3e 33 ba 6f bc
       -0.1021659 -0.04827449 0.12899818 -0.014631796
0001f0 8e 16 03 bd 0a f5 b5 bd f6 7e c4 bd 46 08 96 3d
       -0.03200393 -0.08884628 -0.095945284 0.07325797
000200 ac c5 97 bb 2f 6f 94 3d 49 38 f7 3d 3e 0f c8 bd
       -0.0046317186 0.07247769 0.120712824 -0.09768532
000210 08 da 14 3c 53 9e 83 bd 8f 78 43 3d f1 f1 94 3d
       0.009085186 -0.06426682 0.047722396 0.07272709
000220 3e ee cb bd f0 e9 a6 bd 6a 0a 93 3d 32 33 94 bc
       -0.099575505 -0.08150089 0.07179721 -0.018090818
000230 09 83 ca 3d 6c 3b e0 3d 42 77 83 3d 59 5b 4e 3d
       0.09888274 0.10948834 0.06419231 0.050380085
000240 5d 89 a5 bd 71 9c 68 bd 1c fe 6a 3b ba f9 cf bd
       -0.080828406 -0.05678982 0.0035857027 -0.101550534
000250 74 79 a1 bb 06 b5 e1 bd e4 23 5f bd 00 bf b4 bd
       -0.0049278084 -0.110208556 -0.054477587 -0.08825493
000260 3f 00 b1 bd 5f 54 95 3c ea 59 6e 3d fb 59 32 bd
       -0.08642625 0.018228708 0.058191217 -0.043542843
000270 ba 00 9d 3b 1d 0b b2 3d b2 0f ca 3d b0 00 ba 3d
       0.0047913464 0.08693526 0.09866275 0.090821624
000280 01 a8 98 bd 1a dd 08 3e 53 9d 00 3e a3 84 c9 bc
       -0.07453919 0.13365594 0.12560014 -0.024599379
000290 93 c6 dd bd 8e 3a fd 3d f1 cd fe bd 51 2f 05 be
       -0.10828891 0.12364684 -0.12441624 -0.13006331
0002a0 1e 9d 94 bd 4d 10 fa 3d 5b 20 15 3d 8b c3 40 bd
       -0.0725653 0.122101404 0.03640781 -0.047061484
0002b0 8f e2 d0 3d 41 84 80 3d b6 fa 5c 3d 3f 53 01 be
       0.101994626 0.062752254 0.053950034 -0.12629412
0002c0 95 73 a8 bd 80 15 ed bd b5 6f 7d bd 10 b7 ee 3c
       -0.082251705 -0.115763664 -0.06187411 0.029140025
0002d0 67 13 f0 3c 9d 71 30 3d e0 58 90 bd 33 74 82 3d
       0.029306127 0.0430771 -0.070482016 0.063698195
0002e0 5e 43 c6 bc 03 b9 b4 bb 1a cc 0a be 6f 7f ad bd
       -0.024202045 -0.005515219 -0.13554421 -0.08471572
0002f0 09 d0 18 bd ce c7 27 3c 7c 4f d6 bd b5 21 88 3a
       -0.037307773 0.010240508 -0.10464379 0.0010386022
000300 8c e8 eb 3d b3 70 a5 bc e8 81 bd 3d 18 ee 03 3e
       0.11518964 -0.02019534 0.09253293 0.12883794
000310 f6 b1 65 3d 66 ad 82 3d 3c be b7 bb d6 c8 84 3d
       0.05607792 0.063807294 -0.0056073945 0.06483619
000320 c1 69 9b 3d cc f4 a4 bc 1b d9 c8 bd e3 70 01 bd
       0.0758853 -0.02013626 -0.098070346 -0.031601798
000330 d6 de 03 bd 01 80 97 3d 59 99 f7 3c 74 0a c6 bd
       -0.032194935 0.07397462 0.030224489 -0.096699625
000340 bd 57 df 3d 73 fa 0d bd da 12 51 bc 75 ae 8f 3d
       0.109054066 -0.034662675 -0.012760842 0.07015697
000350 b5 1d 43 bd e1 48 96 3d ee b6 86 3d 29 ae aa bd
       -0.047635753 0.07338119 0.0657786 -0.08334
000360 02 45 a9 bc 8b 3b a8 bd ff 1a 92 3c 56 07 f1 bd
       -0.020662788 -0.08214482 0.017835138 -0.11768977
000370 a0 0f cc 3c c1 03 26 3d ec e7 b5 3d a2 8b c1 bc
       0.024909794 0.040530924 0.08882126 -0.023626152
000380 44 aa cc bd 54 e3 1e 3d 76 2d e7 3d f4 01 b7 3d
       -0.09993413 0.038791016 0.11287968 0.089359194
000390 64 82 43 3d 46 f8 c0 bd b6 85 dd 3d bc 81 e5 3b
       0.047731772 -0.094223544 0.10816519 0.007003991
0003a0 8c f1 f0 bd 89 20 2f bc ca c9 47 3d bc fc be 3c
       -0.117648214 -0.010688909 0.048776425 0.023313873
0003b0 b1 aa ad bd 06 d9 90 bc c8 33 66 bd c1 aa f5 3d
       -0.084798224 -0.01768161 -0.056201726 0.11995459
0003c0 26 e3 4f 3d 9f 4a 07 be 79 42 f2 3d 34 e8 be bd
       0.050753735 -0.1321206 0.11829085 -0.09321633
0003d0 cd fb f7 bc 1b 67 c7 bd bd e8 48 bd 6a a8 c1 3d
       -0.030271435 -0.09736463 -0.04905008 0.094559506
0003e0 f0 5b d9 3c b1 56 37 3d d3 38 a4 3d 63 d8 c6 3d
       0.026533097 0.04476041 0.08018651 0.09709241
0003f0 df c6 01 3e b4 ca f7 3d 54 2b ec 3d d4 05 f9 3d
       0.1267352 0.120992094 0.11531702 0.12159315

shared.0.bias f4 [256]
000000 71 18 5f bc 27 0e 95 bb 1f da c7 bd 5e 92 aa 3d
       -0.013616667 -0.004548806 -0.097584 0.083286986
000010 09 5b a0 bd 7c 0e 7f bc 28 42 b5 bd 9b 91 be 3c
       -0.078298636 -0.015567418 -0.08850509 0.02326279
000020 e6 25 f1 bd 4c ac 09 be db ab 15 bd b0 67 9e 3d
       -0.11774807 -0.13444632 -0.036540847 0.077346206
000030 f5 25 b1 3c db 1a a6 3d 65 fb 80 3b e6 51 07 3e
       0.021624545 0.08110591 0.0039362186 0.13214836
000040 05 4f 1f bd 41 fe c9 3d 39 24 05 be b5 01 81 3d
       -0.03889372 0.09862948 -0.13002099 0.06299154
000050 b7 b2 9d bd 3a 3e d1 3c a2 8f df 3d 14 b5 d4 3c
       -0.07700103 0.025542367 0.10916068 0.025965251
000060 f4 2f a4 bd 7b 9e 01 3e fb ac fe bb 83 1a 76 3b
       -0.08016959 0.12658112 -0.0077720857 0.0037552423
000070 8c e8 62 bd f6 ef 2c bd b4 62 c3 3d 49 8c f0 bd
       -0.055397555 -0.042221032 0.095403105 -0.11745507
000080 d2 01 0f bd d6 15 97 3d 74 19 0b 3e 86 d3 0a be
       -0.034913845 0.07377212 0.13583928 -0.13557252
000090 8f d6 16 3d 41 f4 66 bd 6c 84 7a 3d 62 4b 88 3c
       0.036825713 -0.056385282 0.061161444 0.016637508
0000a0 6e 43 83 3c f1 14 24 39 de d2 f4 bd 1f c2 bd 3d
       0.016023364 0.0001564806 -0.11954282 0.09265541
0000b0 ea 60 f1 3d 3d 65 ce 3d 4b 11 c8 3d 74 14 8a bd
       0.11786063 0.100779034 0.09768923 -0.067421824
0000c0 be db 02 3e fa d0 f2 bb cb 68 61 bd 0c 78 a8 bd
       0.12779137 -0.007410166 -0.05503158 -0.08226022
0000d0 36 b5 f1 3d 0b 63 49 bd 98 d7 6f bc a5 76 a5 3d
       0.11802141 -0.04916672 -0.014638804 0.0807927
0000e0 89 3a f8 3d 07 25 26 3d 4c 6b 38 bd 2d 0b 39 bd
       0.1212054 0.040562656 -0.0450242 -0.045176674
0000f0 b4 2b 4e bc da 40 70 3d c1 6e bc 3d 64 9e 1f 3c
       -0.012583662 0.058655597 0.09200812 0.009742353
000100 d4 e0 bc bd 75 22 05 3e cf ad ba 3d e3 9d 2c 3a
       -0.0922257 0.13001426 0.091151826 0.0006584806
000110 3d de 95 3d 1b 5d 55 3c 37 79 a1 bc fc e9 1c bd
       0.07317779 0.013022686 -0.01971112 -0.038309082
000120 a6 e3 00 be b7 df ca bd 10 ee 09 3e 96 ca 61 3c
       -0.12586841 -0.099059515 0.1346972 0.01378121
000130 0e cc df 3d 65 2b 00 3e 9e 82 11 3d c4 d5 9f bd
       0.10927592 0.12516554 0.035524957 -0.078044444
000140 04 98 bc bd 0d e2 00 3d 48 d6 f2 3d e7 e9 05 3d
       -0.09208682 0.03146558 0.11857277 0.03269377
000150 34 6f db 3c a1 2d ab bd a0 5b b7 bd 40 4e 78 3d
       0.026786424 -0.083583124 -0.08953023 0.0606215
000160 3e 1c 07 be f7 a8 18 bd 34 18 08 3e ec 55 fb 3d
       -0.13194367 -0.037270512 0.13290483 0.12272248
000170 cf 0f b5 bd 39 ac e0 bd 4e 6d eb bd 3b c6 c9 bc
       -0.08840906 -0.10970349 -0.114954576 -0.024630656
000180 1a 02 11 3d d4 7f cb 3d 86 92 e8 bb b3 91 eb 3d
       0.035402395 0.09936491 -0.007097545 0.11502399
000190 88 ed e5 bd 10 5e c4 38 f0 85 4d bd 8a 03 c5 3b
       -0.11226946 9.363529e-05 -0.05017656 0.006012385
0001a0 e5 85 2b bc bb 05 b4 bd 2f 57 b1 bc 0b f7 c8 3c
       -0.010468935 -0.087901555 -0.021648018 0.024531862
0001b0 6a bf df 3d 72 d3 31 3d 40 63 9d 3c d0 3f b7 bb
       0.10925181 0.04341454 0.019212365 -0.005592324
0001c0 60 e4 e6 bd f5 3d 01 bd 48 3d 07 be 3d ae aa 3d
       -0.11274028 -0.031553227 -0.1320697 0.083340146
0001d0 3d 86 6a 3d 38 43 f6 3d 42 63 88 bd b8 47 03 be
       0.057256926 0.1202454 -0.06659557 -0.12820327
0001e0 87 68 18 bd f4 11 9b bd dd 42 2c 3d 02 ad 08 3e
       -0.03720906 -0.07571784 0.042055953 0.13347247
0001f0 4e f0 24 3c 9f 36 94 3d 69 9d a6 3d 2f 33 b4 3d
       0.010067059 0.07236981 0.08135492 0.08798825
000200 a9 2e 07 be a4 a0 03 be 75 d8 2a bc a9 9b 03 bd
       -0.13201393 -0.12854248 -0.010427584 -0.03213087
000210 cc 50 68 3b 6b bd 22 3d 85 bd 09 3e d7 0e 0a bd
       0.003544855 0.039731424 0.13451202 -0.03370556
000220 ff d4 11 bd b5 ca 20 bd 84 7c 89 3d b2 d8 de bd
       -0.03560352 -0.039255816 0.067132026 -0.10881175
000230 ec df 74 bd 53 81 91 3d a2 a7 a6 3d 0a fb 9e bd
       -0.05978386 0.07104745 0.08137442 -0.07762726
000240 2a 72 a5 3c d6 bf 04 3e c1 c7 6c bc cb b3 c5 bd
       0.02019604 0.12963805 -0.014451922 -0.096534334
000250 95 5c 97 bc 7a ff 93 3d 53 de ee bc 74 30 03 be
       -0.018476764 0.07226463 -0.029158747 -0.12811452
000260 6e 61 b3 3d a2 d5 0c bd b4 48 f3 3d 95 73 be bd
       0.087588176 -0.034383424 0.118791014 -0.09299389
000270 8e bc 26 3d 43 03 e8 3c 37 e6 ac 3c 76 31 e9 bd
       0.040707164 0.028321868 0.021105869 -0.11386387
000280 c3 e6 02 be 7f 5e 54 3c 28 b6 79 bd bf 93 2f bd
       -0.12783341 0.012961983 -0.060964733 -0.04286551
000290 d8 4d bb 3d ab a8 f9 3c b5 46 0e bd 66 a0 de 3d
       0.09145707 0.030475935 -0.0347354 0.10870437
0002a0 43 49 03 be 36 69 da 3c 6a 8b df 3d 11 12 a1 3d
       -0.12820916 0.026661497 0.10915263 0.07864774
0002b0 97 95 bf bb e2 37 63 bd 9b f6 db 3d b3 66 25 bc
       -0.00584669 -0.055473216 0.10740396 -0.010095286
0002c0 a3 e6 ec 3d 71 4e 93 bb 3b 4d 94 bd e0 1e a7 3d
       0.11567428 -0.004495435 -0.07241293 0.08160186
0002d0 e3 ff a4 bd a3 3f 00 bd 9f 8a 90 3d 76 03 04 be
       -0.08056619 -0.03131069 0.0705769 -0.12891945
0002e0 b4 55 81 bd 4d e9 93 bc 90 b3 9b 3d 68 c2 f2 3d
       -0.06315175 -0.018055582 0.07602608 0.11853486
0002f0 36 c0 b2 3d 3b 26 b1 bd 04 23 f3 bd 49 39 fe 3d
       0.087280676 -0.0864987 -0.11871913 0.1241327
000300 01 e1 6d 3d ac 76 e7 bd 99 fd e4 bc b9 0f 96 3d
       0.05807591 -0.11301932 -0.027952956 0.073272176
000310 d9 93 ed 3d 37 f9 c4 3d 2c 86 3e 3c 7c a9 9d 3d
       0.11600465 0.096178465 0.011628669 0.07698342
000320 4b c2 83 bd d7 a4 85 3d a8 70 f1 3b e3 78 20 3d
       -0.06433543 0.06525581 0.007368166 0.039177787
000330 63 24 b3 bd 31 3c fc 3c 5e 07 a1 bd 7b 04 ab 3d
       -0.087471746 0.03079042 -0.07862733 0.08350464
000340 dc b4 9c 3d 32 0d 81 3d df 4d 00 3e aa 3e c4 bd
       0.07651684 0.06301345 0.12529705 -0.09582265
000350 f8 87 75 3d 7b 35 95 3d 45 d7 07 bc b9 60 da 3d
       0.059944123 0.07285591 -0.00829107 0.1066298
000360 8a d8 f4 bd 39 bc ce 3c 8f 41 2d 3d 4e d0 62 bd
       -0.11955364 0.025236236 0.04229885 -0.055374436
000370 a8 1c d7 bd e3 73 c7 3d bb 72 a0 3d d4 52 c1 bd
       -0.105035126 0.097389005 0.07834383 -0.09439626
000380 76 6e a9 bd 15 e1 e4 3d 13 98 95 3c a4 ed a2 3d
       -0.08273022 0.111757435 0.018260991 0.079554826
000390 55 fe 67 3d bf de 68 bd a2 36 d3 bd c3 b9 9e bd
       0.056639034 -0.056853052 -0.10313155 -0.07750275
0003a0 ef 48 01 be ba 4d 80 3d 8c cd 1a bc a2 30 e7 3d
       -0.12625478 0.06264825 -0.00944842 0.11288573
0003b0 61 89 94 3d 93 2b f0 bd b3 11 bd bd c5 3f 06 3d
       0.072527654 -0.11727061 -0.092318915 0.03277566
0003c0 43 bd dd 3d 15 e8 05 bd 98 50 a2 3d 7a e2 88 bd
       0.108271144 -0.032692034 0.07925528 -0.06683822
0003d0 30 09 75 bd cf 8f ec 3d 36 b1 d6 bd d7 2f 4c bc
       -0.059823215 0.11550867 -0.10483019 -0.012462578
0003e0 35 f2 b2 bd 1d 34 73 3c 1b eb 9f 3c 73 48 f3 3d
       -0.087376036 0.014843968 0.019521287 0.11879053
0003f0 8a bd 5e bc 08 88 aa 3b c8 d5 ac bd 53 b5 88 bc
       -0.013594994 0.0052042045 -0.08439213 -0.016688025

shared.2.weight f4 [256, 256]
000000 14 cb d9 bc bc 27 63 3d 4e f6 54 bd e0 c2 98 bc
       -0.026586093 0.055457816 -0.051992707 -0.018647611
000010 38 b5 13 bd a4 e8 31 3d e0 2b 48 3b 2e b7 37 bd
       -0.036061496 0.043434754 0.003054373 -0.04485243
000020 28 6c 46 3d 58 f7 02 bc a4 67 c2 bc 40 14 b6 bc
       0.04844299 -0.007993542 -0.02373106 -0.022226453
000030 6c 2a 26 3d 4c bf d1 3c 04 e6 45 3d 08 cf 2b 3d
       0.0405678 0.025603913 0.048315063 0.041945487
000040 c0 74 58 3d a8 05 5a bd 28 a1 c4 bc e8 60 7f bc
       0.052845716 -0.05322805 -0.024002627 -0.015587069
000050 54 b4 cf bc bc 3d 8b bc 9c 95 6c 3d 80 47 06 3a
       -0.025354542 -0.01699721 0.057759866 0.00051223487
000060 f8 ef 16 3c 3c 27 59 bd 48 d5 7f 3c f0 1e 46 bc
       0.009212486 -0.053015932 0.015614815 -0.012092337
000070 30 03 93 bc 24 0d 11 3d d0 d1 8a bb 38 04 47 bc
       -0.017945856 0.035412923 -0.0042364374 -0.012147002
000080 26 b8 6a 3d 5c 00 a4 bc bc 18 3c bd 18 7d 09 bd
       0.057304524 -0.020019703 -0.045922026 -0.033566564
000090 a0 c5 4a bc 04 25 20 bd 10 36 fe bc fc 59 dc 3c
       -0.012376219 -0.0390978 -0.031031638 0.026898377
0000a0 60 55 a3 3c e2 9a 14 3d 22 3a 4e bd fa 6f 49 bd
       0.01993817 0.03628052 -0.05034841 -0.049179055
0000b0 64 cb f9 bc 9e e7 0c 3d b6 ff 4a 3d 9e 43 3e 3d
       -0.030492492 0.034400575 0.04956027 0.046451204
0000c0 34 6a 78 3d 5c 40 93 bc 98 06 7d bc ee 55 38 3d
       0.06064816 -0.017975025 -0.015443467 0.045003824
0000d0 20 c5 70 3d 44 30 f9 3c 74 c5 3a 3d a2 7b 7c 3d
       0.058781743 0.030418523 0.045598462 0.061641343
0000e0 4a f4 54 3d 88 91 b1 bc 4c a7 a5 3c 4e 8d 4d 3d
       0.051990785 -0.02167584 0.020221375 0.050183587
0000f0 60 18 41 3c f4 fd 09 bd 40 c4 d4 3b 26 22 43 bd
       0.011785597 -0.033689454 0.0064931214 -0.04763999
000100 b4 e7 a8 bc d6 a2 76 bd a4 12 40 3d b8 58 72 3c
       -0.020618297 -0.060213886 0.046892777 0.01479166
000110 00 f2 e2 3b 60 4a 3e 3b ee 79 78 bd 28 45 a0 bc
       0.0069258213 0.002903603 -0.060663156 -0.019564226
000120 08 7e 06 3d 00 40 f6 b9 90 0b 70 bd d0 dd 71 3c
       0.032835037 -0.0004696846 -0.058604777 0.014762357
000130 58 a6 03 3c fc ef a3 3c 3c c3 18 3d 88 70 fa bc
       0.008035265 0.020011894 0.037295565 -0.030571237
000140 a2 b1 37 3d fc 4b f8 3c c0 1f 12 3b 48 eb b0 bc
       0.04484714 0.03030967 0.0022296757 -0.021596566
000150 e8 40 c1 bc 10 38 97 bb 00 22 fe ba 30 c3 91 3b
       -0.02359052 -0.0046148375 -0.0019388795 0.004448317
000160 e8 46 ee 3c d4 3c 34 bd 44 34 d1 3c 00 16 0a 39
       0.029086545 -0.044003323 0.025537618 0.00013168901
000170 74 fb b6 3c c0 62 69 3d 4e f4 38 bd d8 8d 1a 3d
       0.022336699 0.05697894 -0.045154862 0.03773293
000180 88 7c 6a 3c 64 dc ba 3c 56 ff 42 3d 96 d5 3a bd
       0.014311917 0.022810169 0.04760679 -0.045613848
000190 e2 1b 51 3d e4 95 a6 bc b0 01 46 bc 90 ec 98 bb
       0.05105198 -0.020335145 -0.012085363 -0.0046668723
0001a0 80 2c 31 3a b8 d1 dc 3c 30 3b 03 bd 18 4b 77 3c
       0.0006758645 0.02695547 -0.032038867 0.015093587
0001b0 8a cd 12 bd 00 3a ba ba 14 c5 fb 3c 8a 3b 13 bd
       -0.03584055 -0.0014207959 0.030733623 -0.035945453
0001c0 08 10 22 bd 48 26 28 3d 12 95 0c 3d 4c 71 2b bd
       -0.03956607 0.041052133 0.034321852 -0.041856095
0001d0 70 59 57 bc b0 fc e4 bb e8 9c 13 bc 00 a7 7a 3b
       -0.013143882 -0.0069881305 -0.009009577 0.0038246512
0001e0 68 61 ec 3c b4 df ec bc 54 53 4b 3d 18 e0 f6 bc
       0.02885504 -0.028915264 0.049640015 -0.030136153
0001f0 40 6e 25 3c e0 04 89 bb 1c 4d 2c 3d ea f2 5a 3d
       0.010097086 -0.0041814893 0.042065725 0.053454317
000200 00 0e b2 3c 60 11 ff 3b e8 bc af bc 5c ee 81 bc
       0.021735191 0.0077840537 -0.021452382 -0.015860729
000210 20 97 67 bc 1e f0 03 3d 50 08 39 bd 1a fe 56 3d
       -0.014135152 0.032211415 -0.045173943 0.052488424
000220 e4 09 e1 3c b0 7b ef bb 62 6f 4b bd 38 61 2c bd
       0.027470537 -0.007308446 -0.04966677 -0.042084903
000230 f6 ec 37 3d e0 d4 e5 bb 94 cc c0 bc 3e ad 6f bd
       0.044903718 -0.007013902 -0.02353505 -0.058514826
000240 2a 6b 79 3d f8 f0 ba bc ea 11 59 3d 00 e4 76 b9
       0.060893215 -0.022819981 0.0529956 -0.00023545325
000250 40 3b 36 3d 42 8b 05 bd 60 e9 ed bb 2a 02 47 bd
       0.0444901 -0.03260351 -0.0072604865 -0.04858605
000260 80 dd 6a 3b 74 8b 8a 3c 60 19 10 bd 88 2a cb 3c
       0.003583759 0.0169122 -0.03518045 0.024800554
000270 70 91 a9 3b ac 75 08 3d 84 8a e6 bc 20 58 58 3d
       0.005174808 0.033315346 -0.028142221 0.052818418
000280 66 64 14 3d 5e c6 34 bd 32 2a 12 3d 08 0d 7b bc
       0.03622856 -0.04413449 0.03568477 -0.015322931
000290 70 c9 92 bc 84 61 02 3d f8 49 68 3c 5c dd 42 bd
       -0.017918319 0.03183128 0.014177792 -0.047574386
0002a0 b4 25 1d bd 32 d4 27 bd c4 59 9d bc 2c 19 92 3c
       -0.038366035 -0.04097385 -0.019207843 0.017834269
0002b0 26 13 49 bd a4 6e 15 3d e0 89 8e bb 22 56 2d bd
       -0.049090527 0.03648247 -0.004349932 -0.04231847
0002c0 c2 97 11 bd a6 34 6a bd 4e 08 0e bd 2e 5b 42 3d
       -0.03554512 -0.057179116 -0.03467589 0.047450237
0002d0 20 20 e1 bc e0 19 9d bc 5c 3f 40 3d 58 4f 49 bd
       -0.027481139 -0.019177377 0.046935424 -0.049147934
0002e0 e6 4e 4f 3d 3e 9b 1f 3d 48 83 36 3d 08 60 3c bc
       0.050612353 0.03896641 0.044558793 -0.011497505
0002f0 6c 19 4b bd 80 cf c7 bb 40 c9 29 3d ac bf a5 3c
       -0.04958479 -0.006097734 0.041451693 0.020232998
000300 d0 1c a0 bc e4 98 dd bc dc b1 84 bc 1c ec 2d bd
       -0.019544989 -0.027050443 -0.016198091 -0.0424615
000310 b2 ee 17 3d 4c f5 b6 bc d4 1c 88 bc 0a ba 12 3d
       0.037092872 -0.022333764 -0.016615309 0.035821952
000320 30 47 00 3d 50 eb 6f bc c4 ed bd 3c 5e 54 70 bd
       0.03131789 -0.014643505 0.023184665 -0.05867421
000330 fe a0 4b bd cc 24 dc bc e0 ec 2e 3c 60 8d cc 3b
       -0.04971408 -0.026873015 0.010676593 0.006242439
000340 5c aa 44 bd e8 fc a0 3c 84 d1 1b bd 48 86 dd 3c
       -0.04801403 0.019651845 -0.038041607 0.02704157
000350 4c c4 c2 bc 44 4f 7d 3d 4c 5c b2 3c 54 fe 49 3d
       -0.023775242 0.06184317 0.021772526 0.04931481
000360 90 43 7d 3d ca b3 74 bd 3c 4d 70 bd 02 9e 71 bd
       0.06183201 -0.059741773 -0.058667406 -0.05898858
000370 80 1b 08 3d c0 06 34 3c 5c 13 a4 bc 24 60 20 bd
       0.03322935 0.010987937 -0.020028763 -0.039154187
000380 64 f6 2f 3d b6 f0 43 bd d0 21 e7 bb 80 72 48 3a
       0.042959586 -0.04783698 -0.0070535913 0.00076464564
000390 6e 4e 66 3d ee 93 01 3d 00 f4 a9 b9 6a 3a 62 bd
       0.05622714 0.031635217 -0.00032415986 -0.05523149
0003a0 dc 3a b5 bc f0 6d 69 bd 80 13 5f bd c4 97 ee 3c
       -0.022122793 -0.05698961 -0.054461956 0.029125102
0003b0 16 75 16 3d 28 5d 14 bc b0 44 d7 3b b4 0d 5e 3d
       0.036732756 -0.009055413 0.0065694675 0.054212287
0003c0 f8 df 67 bd b8 d7 0e 3d 92 90 0d bd 32 e6 78 3d
       -0.056610078 0.034873694 -0.0345617 0.060766406
0003d0 34 19 02 3d 50 66 a1 3b a8 a5 e2 3c 20 30 46 bd
       0.031762317 0.0049255267 0.027666882 -0.04838574
0003e0 04 9f 47 bd 6c 9e c2 3c 26 14 68 3d e0 fc c0 bb
       -0.048735633 0.023757182 0.05665984 -0.00588952
0003f0 70 9f 51 3c 50 e8 94 bb ec 4e af 3c e0 f6 3b 3b
       0.0127943605 -0.0045442954 0.021399938 0.0028681085

shared.2.bias f4 [256]
000000 80 4b 5d bd 7c 35 d8 bc d8 02 31 3d 90 9b 22 3c
       -0.05402708 -0.02639269 0.043215603 0.009924784
000010 22 8b 61 bd aa dd 5a 3d 50 cf a7 3c 00 ac 01 b9
       -0.055064328 0.05343405 0.020484596 -0.00012366474
000020 8c 63 8d bc f8 2d f8 bc 20 18 0b 3c 44 16 ed 3c
       -0.017259382 -0.030295357 0.008489639 0.028941281
000030 e6 29 39 bd 24 2d 9a bc 90 f3 68 3c 4c 42 4c 3d
       -0.045205973 -0.018820353 0.014218226 0.049867913
000040 14 a9 e6 bc 76 6d 65 bd a0 0f 9c bb a8 5e 5f bc
       -0.028156795 -0.056012593 -0.004762605 -0.013633408
000050 34 60 35 3d 74 2d 81 3c 58 09 44 bd 2a be 1e bd
       0.0442812 0.015768744 -0.047860473 -0.038755573
000060 98 00 01 3c 76 63 37 bd a6 eb 14 bd c0 08 37 bb
       0.007873677 -0.044772588 -0.036357544 -0.00279288
000070 86 d4 1e bd 48 69 f4 3c 48 f5 71 bd 10 ea d0 3b
       -0.038776897 0.029835358 -0.05907181 0.0063755587
000080 20 67 f5 3b 1c d3 a0 3c 20 27 21 bc c0 6b d5 bc
       0.0074891 0.019631915 -0.009835988 -0.026052356
000090 12 1a 16 bd e0 96 9c bb 20 ab 60 3d 58 f7 e5 3c
       -0.036645956 -0.004778728 0.054850698 0.028072044
0000a0 d0 f3 15 3d e0 9b bd 3c e6 70 7b 3d 4c d2 d8 bc
       0.03660947 0.023145616 0.061386965 -0.026467465
0000b0 90 1a cc bc 7c 47 f4 3c 48 b5 c6 bc d0 b7 51 bd
       -0.02491501 0.029819243 -0.024256364 -0.051200688
0000c0 c2 96 76 3d 98 ca 9f 3c aa 83 3e bd 9c ed 82 3c
       0.060202368 0.019505784 -0.046512283 0.015982442
0000d0 42 d0 1a 3d e0 71 86 3b 5a bc 0d bd 2c 7f 14 3d
       0.037796266 0.0041029304 -0.034603454 0.036254093
0000e0 34 43 d8 3c 4a 24 7c bd 34 35 71 bd d4 72 9a bc
       0.026399232 -0.061558045 -0.05888863 -0.018853582
0000f0 12 ab 01 bd da bd 2f bd 8c c8 af bc 3c c9 2e bd
       -0.031657286 -0.042905666 -0.021457933 -0.04267238
000100 78 70 07 bc 28 2b 42 bc e0 a0 0e 3c 82 44 26 bd
       -0.008266561 -0.01185111 0.008705348 -0.040592678
000110 a0 ac 0f 3b 04 3e 04 3d d2 df 71 bd 7c 2a 8d bc
       0.002192296 0.032285705 -0.059051342 -0.017232172
000120 98 08 28 3d 4c 47 ec bc 00 18 52 bd b4 f0 34 bd
       0.04102382 -0.02884259 -0.05129242 -0.044174865
000130 5a ce 3d 3d b4 96 48 3d 98 93 fc bc 5c 93 90 bc
       0.04633937 0.048971847 -0.030832097 -0.017648391
000140 d6 0a 0a bd 6a 42 16 3d 60 89 a5 bb 20 ff 51 bb
       -0.03370174 0.03668443 -0.0050517768 -0.0032042935
000150 6c 81 ae bc d0 03 28 3c bc 26 94 3c 26 3d 72 bd
       -0.021301948 0.010254815 0.018084876 -0.059140347
000160 58 d9 5b 3d d4 af 5f bd d8 97 76 3d b2 4b 42 bd
       0.053674072 -0.054611042 0.060203403 -0.04743547
000170 34 23 8e bc 80 9e 1e 3d b0 bf 32 3d c0 1a e9 3c
       -0.01735077 0.038725376 0.04363984 0.028455138
000180 38 ca a5 bc 52 38 59 bd 10 a8 f0 bb 2e 2e 5b bd
       -0.020238027 -0.053032227 -0.0073442534 -0.053510837
000190 60 ba 5e bc 6e 0b 24 3d ea bd 20 bd 56 db 3c bd
       -0.01359424 0.040049963 -0.039243616 -0.046107613
0001a0 5e 6a 34 3d 30 4e b9 3b a8 43 0e 3c a4 6d ff 3c
       0.044046752 0.0056550726 0.008683123 0.03118021
0001b0 1c 91 57 bd a0 a8 74 3c 94 17 2c 3d 00 03 f7 3a
       -0.05262862 0.014932781 0.042014673 0.0018845499
0001c0 80 5b 4a 3c fc 59 c1 3c 60 16 26 3d 54 18 bb bc
       0.012350917 0.023602478 0.040548682 -0.022838749
0001d0 46 be 78 3d dc 2f 2c bd d6 dc 5e 3d 1a ff 00 3d
       0.060728334 -0.04203783 0.054409824 0.031493284
0001e0 50 33 dd 3c 9c a9 93 bc ca 14 2f bd 52 02 38 3d
       0.027002007 -0.018025212 -0.042744435 0.044924088
0001f0 b8 27 3f bd 38 7e e8 bc 80 dc 65 ba dc aa 3f 3d
       -0.046668738 -0.028380498 -0.0008768514 0.046793804
000200 74 e0 d2 bc 46 7e 73 3d 8c 20 33 3d 64 84 32 bd
       -0.025741793 0.059446596 0.04373221 -0.04358329
000210 74 1c 73 3d dc 6c c9 bc 50 bc 79 3d c0 1c c7 ba
       0.059353307 -0.024588041 0.060970604 -0.0015191063
000220 9e d2 19 3d f0 10 f2 3c a4 51 35 3d 42 1c 24 bd
       0.037554376 0.029549092 0.04426731 -0.04006601
000230 70 b3 80 bb 98 c0 37 bd 80 9b 3a bd 90 b6 b5 bc
       -0.0039276406 -0.044861406 -0.045558453 -0.02218178
000240 b6 91 43 bd 28 ff ae 3c 58 d4 78 3d d4 1a 6a 3d
       -0.047746383 0.021361902 0.06074938 0.05715449
000250 ce af 07 bd 72 49 70 3d d0 28 29 3d 14 a8 fc 3c
       -0.033126645 0.058663793 0.041298687 0.030841865
000260 28 78 5a 3c d0 93 7d bd 80 0e 76 bb 1a f9 36 3d
       0.013334312 -0.061908543 -0.0037545264 0.044671156
000270 44 e1 2e 3d f0 17 1c 3d 2c 93 69 3d fa db 4b bd
       0.0426953 0.038108766 0.05702512 -0.049770333
000280 b8 b4 7c bc 3a 62 17 bd 80 39 1e 3b e8 73 9d 3c
       -0.015423946 -0.03695891 0.002414316 0.019220307
000290 c0 bb 5e 3d 50 de 97 3c 30 77 76 3d 52 a7 41 bd
       0.05437827 0.018538624 0.06017226 -0.04727871
0002a0 94 17 42 bd 9c 10 8e bc c6 c4 7a 3d 84 cb b5 bc
       -0.047385767 -0.017341904 0.061222814 -0.02219177
0002b0 8a 5e 5b bd 00 2c b0 bc 8a 04 56 bd 00 8e 7c 39
       -0.053556956 -0.021505356 -0.052250423 0.00024085492
0002c0 80 69 8a bb 58 0a 77 bd dc 48 c8 3c 7c 22 d3 bc
       -0.0042240024 -0.0603126 0.024448805 -0.02577328
0002d0 10 a0 35 bd 24 d9 f2 3c 66 ea 10 bd 00 01 85 bb
       -0.0443421 0.029644556 -0.03537979 -0.004058957
0002e0 0e f1 36 3d f8 cf ac 3c 0a 12 38 3d fe e8 1e 3d
       0.04466348 0.021095261 0.04493908 0.038796417
0002f0 c0 8f e8 3c f2 50 72 bd 9e d4 2e 3d 5c b0 93 bc
       0.028388858 -0.059159227 0.042683236 -0.01802843
000300 e0 fe b3 3c 3e 22 6b bd 10 d0 93 bb 28 ab 73 3d
       0.02197212 -0.057405703 -0.004510887 0.0594894
000310 f4 dc 7c 3d b2 c2 2c bd 98 a0 21 3c a8 87 33 bd
       0.061734155 -0.042177863 0.009864949 -0.043830544
000320 86 18 62 bd ac 82 eb bc 60 a4 bd 3b 94 11 bc 3c
       -0.05519917 -0.028748833 0.0057874173 0.0229576
000330 f8 eb c3 3c 80 06 19 bb 04 dc 34 bd a8 d4 77 bd
       0.02391623 -0.0023349822 -0.044155136 -0.06050554
000340 80 a6 fb 3a 20 0a af bc d8 f3 ae bc 64 0e 4e bd
       0.0019199401 -0.021367133 -0.021356508 -0.050306693
000350 1c 51 e6 bc 90 a9 95 bc cc 9f a3 3c 3e 55 1e 3d
       -0.028114848 -0.01826933 0.019973658 0.038655512
000360 80 1a 9c bb 24 7f 77 bd 9e 5a 44 3d f6 88 66 bd
       -0.0047639012 -0.060423985 0.04793798 -0.05628296
000370 1c d7 fb bc e8 4c 24 bd 38 dd cc bc 78 1e 6a 3d
       -0.03074222 -0.040112406 -0.02500783 0.057157964
000380 b0 3c e7 bb 14 66 18 3d 6c 4e db bc 44 d8 7c bd
       -0.007056795 0.037206724 -0.026770793 -0.061729684
000390 98 5d d2 3c 48 37 a3 bc a8 fd 6d 3d 04 5b 5e bd
       0.025679395 -0.019923821 0.058103234 -0.054286018
0003a0 54 81 12 bd ca e4 74 bd b8 7f d9 bc 44 af 37 3d
       -0.03576787 -0.059788503 -0.026550159 0.04484488
0003b0 f8 db d6 3c 08 c5 08 3c 00 29 62 bc 10 34 b1 3b
       0.026227936 0.008347757 -0.0138037205 0.0054078177
0003c0 54 b0 ef 3c bc 76 cd bc 0c 93 68 3d 00 a4 20 39
       0.029258884 -0.025081031 0.05678086 0.00015319884
0003d0 a8 da c1 3c b6 52 50 3d 2c e2 6a 3d c6 04 6f 3d
       0.023663834 0.05086013 0.0573446 0.05835416
0003e0 00 74 7c 3b 68 c6 12 bd a0 b1 01 3c 32 11 31 bd
       0.003852129 -0.035833746 0.007915884 -0.04322929
0003f0 6a ec 76 bd 00 9d ce 39 e4 93 ff 3c b2 ba 72 3d
       -0.060284056 0.00039408356 0.03119845 0.059260078

policy.0.weight f4 [256, 256]
000000 e2 e4 13 bd d8 89 64 bc 00 79 46 3a 30 e8 98 bc
       -0.03610695 -0.01394888 0.0007571131 -0.018665403
000010 6a ab 25 3d 28 9e 1b 3d 00 ed 88 ba 64 c0 80 bc
       0.040446676 0.037992626 -0.0010446608 -0.015716739
000020 46 22 1a bd 2a a5 31 bd ac fb 56 3d c8 9e 7c bd
       -0.037630342 -0.043370403 0.052486107 -0.061674863
000030 fc 2f be bc ca 3c 0f bd f0 4d b2 3c 70 2d d5 3b
       -0.02321624 -0.034970082 0.02176568 0.0065056607
000040 dc fc e2 3c 20 ed 6e bb d8 02 9d bc fc 97 98 3c
       0.027708463 -0.0036457255 -0.019166395 0.01862716
000050 4c 45 0e bd 58 6a 4e 3c f0 3d 8a 3c 00 bf f0 b9
       -0.034734055 0.0125985965 0.016875237 -0.00045918673
000060 2c e0 27 3d c4 fb 67 3d 22 33 11 bd 5e 6d 2d 3d
       0.04098527 0.056636587 -0.035449155 0.04234063
000070 aa 6c 57 bd 20 03 5f bc 58 fb 4a bd 94 81 44 bd
       -0.052593865 -0.013611585 -0.049556106 -0.047975138
000080 00 56 6b bc 10 74 84 bb 28 76 ab bc 60 03 62 3d
       -0.014363766 -0.004042156 -0.020930365 0.055179
000090 2c 7c 87 3c 30 29 0f bd 1c 75 d7 bc 32 60 3e 3d
       0.016538702 -0.03495139 -0.02630096 0.046478458
0000a0 80 8d 7d bb ce a3 6d bd 26 a9 75 bd 00 0a 17 3c
       -0.0038689077 -0.058017544 -0.059975766 0.009218693
0000b0 38 73 a4 bc 2c d5 69 3d d0 32 fe 3c 44 a8 55 3d
       -0.020074472 0.057088062 0.031030089 0.052162424
0000c0 7a 0a 7b 3d 1c 5d bc bc 4a 25 61 bd 20 66 6b bc
       0.061289288 -0.022993617 -0.054967202 -0.01436761
0000d0 f4 92 ff bc 60 4a 40 3d 8c 2f e1 3c 28 7f 3c 3d
       -0.031198002 0.04694593 0.027488492 0.046019703
0000e0 34 b6 ee 3c 48 87 1b 3c 4c bc c8 3c 38 56 d3 bc
       0.029139616 0.009492703 0.02450385 -0.025797948
0000f0 38 18 2c bc e0 31 f7 bc ce 66 13 3d 9e 77 71 bd
       -0.010503821 -0.03017515 0.035986714 -0.058951966
000100 b0 b8 2d bc 66 6b 64 bd 64 d7 9c bc b0 ef bb 3c
       -0.010603115 -0.055766486 -0.019145675 0.02294144
000110 ec 20 cc 3c 6c 1d 4c bd 26 36 1a bd 30 5d 28 bc
       0.024918042 -0.049832746 -0.037649296 -0.010276124
000120 b4 92 08 3d ce c2 27 3d 1c ee 2d 3d 0c 69 45 3d
       0.033343032 0.040957265 0.042463407 0.048195884
000130 f6 cf 23 bd 5c 8c 5f 3d 40 59 06 3d 32 8c 0a bd
       -0.03999325 0.054577217 0.03279996 -0.033825107
000140 20 da f9 bc 28 37 08 3d b0 39 3a 3c 58 ed 5e bc
       -0.030499518 0.033255726 0.011366293 -0.013606392
000150 60 3c 51 bd 3e b7 2c 3d 72 ba 78 3d 3a 57 65 bd
       -0.05108297 0.04216694 0.060724683 -0.05599139
000160 da 4e 74 bd d8 40 01 3c 14 e3 8f bc 08 3f 87 3c
       -0.05964551 0.007888995 -0.017564334 0.016509548
000170 fc b0 eb 3c 86 7e 1e bd 00 0f 21 3c 50 dc 08 3c
       0.028770916 -0.03869488 0.009830236 0.008353308
000180 e0 27 36 bd a0 c5 cd 3b c0 24 6a bb f4 cf ba 3c
       -0.04447162 0.0062796623 -0.003572747 0.022804238
000190 34 a4 9d bc 80 2f 4a 3c e8 03 47 bd 7a 4b 14 3d
       -0.019243337 0.012340426 -0.04858771 0.036204793
0001a0 80 f7 37 3b 36 53 3b 3d b4 34 b7 3c f0 bc 6e 3d
       0.0028071105 0.045733653 0.022363998 0.058285654
0001b0 80 04 7b 3a 40 d8 f7 bb 80 5a 1b bd 96 20 68 3d
       0.00095755607 -0.007563621 -0.037928104 0.0566717
0001c0 18 60 bf 3c 14 1c dd 3c d0 a5 c4 bb f8 1c f4 bc
       0.02336125 0.026990928 -0.0060012117 -0.02979897
0001d0 54 50 fd 3c 22 5d 42 3d ea fa 12 3d 72 13 27 bd
       0.030922092 0.0474521 0.03588382 -0.04079003
0001e0 9a 0e 75 3d d4 e9 5e bd 54 07 88 3c e0 09 44 3d
       0.05982838 -0.054422215 0.016605057 0.04786098
0001f0 7c 79 2d 3d bc 20 26 3d 70 5d d5 3c f0 a7 e5 bb
       0.042352185 0.04055856 0.026045531 -0.007008545
000200 12 62 3e 3d 60 59 25 3c a0 5c ae bc 18 e7 65 bd
       0.046480246 0.010092109 -0.021284401 -0.05612859
000210 10 df 0e bd a4 38 64 bd 98 80 c8 3c 40 96 e6 3c
       -0.034880698 -0.05571808 0.02447538 0.028147817
000220 10 ce a9 bb c4 80 e3 3c a8 fb a6 3c 80 e1 6d bd
       -0.0051820353 0.027771361 0.02038367 -0.05807638
000230 42 e8 68 3d de f1 6f 3d 50 83 d5 3c b4 26 e7 bc
       0.056862123 0.058580272 0.026063591 -0.028216697
000240 08 ba 44 3c 1c fb 9e 3c 74 e1 34 3d c0 b5 8f 3c
       0.012007244 0.019406848 0.04416032 0.01754272
000250 ac dc 03 bd 28 f5 24 3c 94 0d 1c 3d 46 0b 37 3d
       -0.03219287 0.010068215 0.038098887 0.044688486
000260 8a c8 2e 3d 18 bf 78 bd 3c 28 e4 3c d0 6d a1 3c
       0.042671718 -0.060729116 0.027851216 0.019705683
000270 20 0a 0e bb 44 4f 28 bd c0 ff 24 bc 76 b8 2a 3d
       -0.0021673515 -0.04109122 -0.010070741 0.041679822
000280 84 d2 31 bd 1a 71 08 bd c6 9c 52 3d 90 19 f3 3b
       -0.043413654 -0.033310987 0.051419042 0.007418819
000290 f0 46 df bb 4e 27 71 bd e6 c4 08 3d bc 6c 60 3d
       -0.0068138763 -0.058875374 0.033390902 0.054791197
0002a0 ba 55 3e 3d 9e 66 01 bd 18 2d e0 bc 50 82 8f 3c
       0.046468474 -0.031592004 -0.027365252 0.017518193
0002b0 36 90 7c 3d 4c f5 79 3d 70 26 a5 bc 06 13 53 3d
       0.061660968 0.06102495 -0.02015993 0.051531814
0002c0 cc e3 a1 bc dc ca 6f 3d f0 af 64 bd 00 db 86 39
       -0.019761942 0.05854307 -0.05583185 0.0002572164
0002d0 b8 0b 86 bc b8 33 72 bc 32 08 36 3d 12 0f 6f bd
       -0.01636301 -0.0147828385 0.04444141 -0.05836398
0002e0 7c 3b e9 3c 50 94 ed bb 50 d7 6a 3c 30 ee 29 bd
       0.028470747 -0.0072503462 0.014333561 -0.04148692
0002f0 c0 7f 55 3b 36 74 18 bd b2 7e 54 bd bc 20 72 3d
       0.0032577366 -0.037220202 -0.05187864 0.05911325
000300 98 77 35 3d d0 9a 53 3c 50 d8 f9 bc 20 70 3d 3c
       0.044303507 0.012915328 -0.030498654 0.011562377
000310 f8 11 1b 3d 18 6c 0a bc 80 15 d3 3a 00 3a 34 3c
       0.037858933 -0.008448623 0.001610443 0.011000156
000320 e4 99 59 3d e0 28 5d bd 80 17 99 bc 3a 1e 7e 3d
       0.053125277 -0.05399406 -0.018687963 0.062040545
000330 70 af 88 3c 64 4c 5c bd 62 8f 55 bd c0 85 34 3d
       0.016685218 -0.05378379 -0.052138694 0.044072866
000340 04 63 52 3d 6c 0d 5c 3d 60 c9 60 3c 60 61 7e bd
       0.05136396 0.053723738 0.013719887 -0.062104583
000350 2a 92 75 3d 70 69 63 3d 00 24 68 39 86 c8 44 bd
       0.059953846 0.055520475 0.00022138655 -0.048042797
000360 10 df 02 bd c6 c0 18 bd 64 6f cc 3c d0 8a 4b bd
       -0.03195101 -0.037293218 0.024955459 -0.04969293
000370 00 e8 53 3c 38 6c 05 3d b4 74 96 bc a4 13 70 3d
       0.012933731 0.03257391 -0.018366195 0.05861248
000380 5a 24 17 3d 3e 6c 52 bd 54 34 c1 3c d8 10 c3 3c
       0.036899902 -0.05137276 0.023584522 0.023811743
000390 fe 62 25 3d 70 ba e1 3c b8 08 84 bc e8 cc e5 bc
       0.04037761 0.02755472 -0.016117439 -0.028051808
0003a0 80 88 59 bd b8 b3 29 bc 7a 16 54 3d 68 8e fd 3c
       -0.053108692 -0.01035779 0.051779248 0.030951694
0003b0 44 e4 92 bc b2 ca 66 bd 4a 28 4b 3d f0 4b f6 bc
       -0.017931111 -0.05634565 0.04959897 -0.030065507
0003c0 00 61 73 3d 60 c1 33 bb 30 25 78 bd 78 a4 1f 3c
       0.05941868 -0.0027428493 -0.06058234 0.009743802
0003d0 f8 27 5a bc ba 45 30 bd d0 d0 f1 3b d0 11 87 3c
       -0.013315193 -0.043035246 0.0073796287 0.016487986
0003e0 26 b5 71 bd 20 22 22 bd c0 d6 e7 bb 40 16 67 3b
       -0.059010647 -0.039583325 -0.0070751607 0.0035261065
0003f0 c0 d9 c6 ba 5a 5f 56 bd 88 a4 1c 3d 64 db e7 bc
       -0.0015171096 -0.052337028 0.038242847 -0.028302856

policy.0.bias f4 [256]
000000 00 ca b4 ba 04 30 56 bd a0 cb 49 3c 34 f8 a5 bc
       -0.0013793111 -0.052291885 0.012316614 -0.020259954
000010 48 51 93 3c 20 14 21 bd 98 50 ac bc 44 13 5c 3d
       0.017983094 -0.039325833 -0.021034524 0.05372931
000020 b4 e3 4b 3d 00 ab 78 bc 50 87 e5 bb 80 ab 2f bb
       0.0497777 -0.015177488 -0.007004656 -0.0026805103
000030 28 03 7b 3d 0e 88 56 bd c2 81 3a 3d 90 80 f9 3c
       0.061282307 -0.052375846 0.045533903 0.030456811
000040 00 5f 00 3c 5e 58 4a bd 60 c6 74 3c 38 b8 2d bd
       0.00783515 -0.04940068 0.014939874 -0.042412013
000050 c6 a1 48 3d 28 2b 4a bd 76 6a 12 3d e4 55 b6 bc
       0.048982404 -0.049357563 0.03574606 -0.022257753
000060 00 63 23 bc 20 9d 2c 3b 30 77 c6 bb 80 92 e5 3b
       -0.009972334 0.002633877 -0.0060566887 0.0070059896
000070 f6 94 7a 3d 0e 98 5d 3d 6e b9 73 bd c2 3e 74 3d
       0.061177216 0.05410009 -0.05950301 0.059630163
000080 d0 6e 48 3c 90 5c 2e bd 10 20 86 3c 50 4d dc 3b
       0.012233451 -0.042568743 0.01637271 0.0067230836
000090 a4 f6 2d bd 00 14 e0 ba 4e f8 3d bd c8 47 68 3c
       -0.042471543 -0.0017095804 -0.04637938 0.01417727
0000a0 7c cb c1 3c 38 dd 6b 3c e0 25 4d bb ae ef 42 3d
       0.0236566 0.014396004 -0.0031303093 0.047591858
0000b0 84 e6 1e 3d 50 e4 3d 3c 08 c0 bb bc 00 3b ed 3b
       0.038794056 0.0115900785 -0.022918716 0.0072396994
0000c0 a2 65 32 bd f0 2d cb bc a6 7f 70 bd 1c f7 fe 3c
       -0.043553956 -0.024802178 -0.058715485 0.03112369
0000d0 68 c5 39 3d 0e a8 70 bd 80 30 e3 bc 7c 26 6d 3d
       0.045354277 -0.05875402 -0.027733088 0.05789803
0000e0 98 63 29 3c a8 11 0d bc 74 38 b9 3c 34 ad 10 3d
       0.010338686 -0.008610167 0.022609927 0.03532143
0000f0 0c f8 72 3d c2 1f 6d bd 58 a2 a6 3c d0 9a c8 3c
       0.059318587 -0.057891615 0.020341083 0.024487883
000100 60 c1 cf 3c 12 9f 2c 3d bc 57 9d bc 00 79 0d 3d
       0.025360763 0.04214389 -0.019206874 0.034539223
000110 10 d1 b0 3b d0 b2 58 bc f0 e2 56 bc c0 52 6a bd
       0.005396016 -0.013226226 -0.01311563 -0.057207823
000120 f8 64 e8 bc 5c 37 c5 bc 44 de ca 3c 0c ea 2f bd
       -0.028368458 -0.024074249 0.024764188 -0.042947814
000130 dc 1a e0 3c a2 45 10 bd 08 4c df 3c 00 c1 59 3c
       0.027356558 -0.035222657 0.027257934 0.013290644
000140 8a ce 5e 3d d4 4a 6b bd de bd 36 bd 80 73 4f 3a
       0.05439619 -0.05744441 -0.044614665 0.0007913634
000150 04 0f 91 bc 78 8a 67 bd b2 d5 69 3d 0c 2d 75 bd
       -0.017707355 -0.05652854 0.05708856 -0.059857413
000160 ec 6e 13 3d 5c 7c 6b bd 70 18 c7 bb a8 e6 66 3d
       0.035994455 -0.057491645 -0.006075911 0.056372315
000170 14 81 25 3d c4 9a a1 bc 00 bd 88 ba bc 11 bf 3c
       0.0404063 -0.019727118 -0.0010432303 0.023323886
000180 a0 04 c1 bc 48 3f 15 3c 2c b8 1e bd 32 6e 35 3d
       -0.023561776 0.009109326 -0.03874986 0.044294544
000190 60 86 c9 bc 22 bb 57 bd b8 f2 51 3d fa 9d 2b bd
       -0.024600208 -0.052668698 0.051256865 -0.041898705
0001a0 c8 d3 88 bc 00 33 63 3a 70 a2 4c bd 5c 38 6c 3d
       -0.016702548 0.00086669624 -0.0499596 0.057670936
0001b0 a0 23 d2 3c c0 80 8c 3a 2c 78 37 bd ca 6c 25 3d
       0.025651753 0.0010719523 -0.04479234 0.040386952
0001c0 f8 c2 3e bc 9c 60 47 bd 98 ac 2d 3d be 87 7f 3d
       -0.011643164 -0.04867612 0.042400926 0.062385313
0001d0 70 60 42 bc 80 0c 60 3a 68 56 9b 3c 24 c5 d7 3c
       -0.011863813 0.00085467845 0.0189621 0.026339121
0001e0 10 e8 37 bd 60 de 2d bc 8c 83 cc bc 1c a6 2a 3d
       -0.044899046 -0.0106121 -0.02496507 0.04166232
0001f0 0e d9 36 3d ac 4c 80 3c 08 9d 3c bc dc 85 f9 3c
       0.044640593 0.01566156 -0.011512049 0.030459337
000200 0e db 4f 3d 18 fd 35 bc e0 bd 1a 3c d2 6c 6c bd
       0.050746016 -0.0111077055 0.009444684 -0.057720967
000210 e0 df 67 bd 1c cb ae bc 20 75 20 bb f0 56 8d 3b
       -0.05660999 -0.021337084 -0.0024483874 0.0043133423
000220 26 18 6a bd 34 2d cc 3c a8 05 c5 bc 08 37 0c 3c
       -0.057151936 0.024923898 -0.024050549 0.008558042
000230 5a c2 39 3d cc 5a 81 bc b0 6a dc 3c 76 b1 75 3d
       0.045351364 -0.015790366 0.026906341 0.059983693
000240 d8 8f bf 3c f8 96 1f bc 00 a7 50 bb 66 28 4e 3d
       0.02338402 -0.009740584 -0.003183782 0.050331496
000250 74 e2 82 bc ec b0 cd bc 98 60 68 bc 30 ff 30 3d
       -0.015977122 -0.025108777 -0.014183186 0.043212116
000260 38 4b 64 bd dc 9b a1 bc aa 95 13 bd 70 2d 48 bc
       -0.055735797 -0.01972764 -0.036031403 -0.012217864
000270 32 13 3d bd d0 b1 bf bc c4 2f 31 3d a6 d2 2f bd
       -0.046160884 -0.023400217 0.043258443 -0.0429255
000280 b0 8d 9f bb a4 a6 47 3d 8c 3b 71 3d f4 7e 01 3d
       -0.0048691854 0.048742905 0.05889468 0.031615213
000290 86 00 70 3d 80 02 09 bb b8 0a 11 bc fa ab 59 3d
       0.05859425 -0.002090603 -0.008852653 0.053142525
0002a0 50 db 28 3c 18 09 96 3c 7c e0 d5 bc 58 93 0c bc
       0.010306194 0.018314883 -0.026108019 -0.008580051
0002b0 f6 70 0e 3d 48 a9 21 bd ee 3f 2f 3d 2a 14 70 3d
       0.034775697 -0.03946808 0.042785577 0.05861298
0002c0 e0 b8 d1 bb 90 c7 f0 bb 82 43 43 bd e8 e8 06 bc
       -0.0064002126 -0.0073480085 -0.047671802 -0.00823424
0002d0 b0 3f 8c 3c 2c 3b 2f 3d da e0 3f bd d4 de 06 bd
       0.017120212 0.04278104 -0.046845295 -0.03292735
0002e0 26 22 5e bd 9c 78 e6 bc 98 59 3c bc a2 cc 41 bd
       -0.054231785 -0.028133683 -0.01149597 -0.047314294
0002f0 40 b5 db bb c0 51 e1 bb fc 92 03 bd 08 3b 3c bc
       -0.0067049563 -0.0068762004 -0.032122597 -0.0114886835
000300 bc 17 73 3d 4c a8 89 3c 66 28 1a 3d c0 d3 c2 bb
       0.059348807 0.016803883 0.037636183 -0.0059456527
000310 b0 a1 07 3c 96 94 1c 3d e0 0a df 3c 64 37 b1 3c
       0.008278295 0.03822764 0.027226865 0.021632858
000320 36 d8 03 3d ec 65 f4 bc 5a ad 3b bd 04 4d 00 3d
       0.032188617 -0.029833756 -0.045819618 0.031323448
000330 ee 71 32 3d e6 b7 69 3d 80 3f a9 bc c0 c0 b9 bb
       0.043565683 0.057060145 -0.020660162 -0.0056687295
000340 fe 15 70 bd cc 5b 04 3d ba 54 73 3d c6 88 6a bd
       -0.058614723 0.032314107 0.059406973 -0.057259344
000350 d0 fd 5c 3d 3e 1c 67 bd 20 7a a7 bb 9c 82 d5 bc
       0.053952992 -0.05642342 -0.005110994 -0.026063256
000360 b0 82 20 3c 96 11 17 3d 58 75 5b 3c 08 b3 67 3c
       0.009796783 0.036882006 0.013394676 0.0141418055
000370 80 27 4e bb 96 ed 76 bd 0c 41 65 bd b0 55 4c 3c
       -0.003145665 -0.060285173 -0.055970237 0.012471601
000380 40 61 61 bc 34 61 fc 3c 68 47 94 bc 84 0f 63 bd
       -0.013756096 0.030808069 -0.018100455 -0.05543472
000390 60 88 06 3b 38 a7 06 bc 80 37 4b 3b f0 33 3f bd
       0.0020528063 -0.008218579 0.0031008422 -0.04668039
0003a0 d6 bf 30 bd d0 06 82 bc da 71 1b 3d 38 98 b3 3c
       -0.0431517 -0.01587239 0.037950374 0.02192317
0003b0 68 44 54 3c 26 5d 75 bd a8 5c a6 bc 22 0f 65 bd
       0.012955762 -0.059903286 -0.020307854 -0.055922635
0003c0 ac 37 79 bd a0 70 68 3b a8 fa 6d 3c b0 af 2a bd
       -0.06084411 0.003546752 0.014525093 -0.041671455
0003d0 dc b3 7f 3d a0 05 e5 bb 2e 14 7a bd 70 54 c6 3b
       0.062427387 -0.006989196 -0.0610544 0.006052546
0003e0 6e db 29 3d e8 45 8e bc 0e e1 1d bd 78 96 da bc
       0.04146903 -0.017367318 -0.038544707 -0.026683077
0003f0 38 36 46 3d 94 65 d4 3c 70 5b 52 bc 28 cb 90 3c
       0.04839155 0.025927342 -0.012839183 0.017674997

policy.2.weight f4 [5, 256]
000000 90 bc 1a 3d 54 19 53 bd 08 d8 3f bc 44 2b 63 3d
       0.037777483 -0.051537827 -0.011709221 0.055461183
000010 44 9a 98 bc 88 f2 1e bc fe 35 3e bd 34 40 4b 3d
       -0.018628247 -0.009701379 -0.04643821 0.049621776
000020 ea 73 7e 3d 78 b3 11 bc de 08 3a bd d0 c2 ea 3b
       0.062122263 -0.008892886 -0.045418613 0.0071643367
000030 78 23 53 3c 10 71 c4 bb a8 c8 6b bd 64 c2 e6 bc
       0.012886874 -0.0059949234 -0.057564408 -0.028168865
000040 26 33 67 bd 80 a5 39 ba e8 34 7c 3d e0 35 fb 3c
       -0.056445263 -0.00070818514 0.061573893 0.030665338
000050 7a b7 51 3d c0 6d 32 3d dc c3 ba 3c be 90 76 3d
       0.051200368 0.043561697 0.022798471 0.06019663
000060 88 c9 4a bd dc ea 7a 3d 30 7c 3a bc 04 0b a2 3c
       -0.0495086 0.061259136 -0.011382148 0.019780643
000070 90 f6 79 3d b2 ee 16 3d de 1c 32 3d 2e 56 6b bd
       0.061026156 0.03684873 0.04348456 -0.057455234
000080 9c 9c 27 3d 44 82 44 bd 58 d7 f7 bc 02 8f 7a bd
       0.04092084 -0.047975793 -0.030254051 -0.06117154
000090 e0 9b e7 bb 88 a8 97 3c 5c a6 97 bc 90 07 79 bd
       -0.0070681423 0.01851298 -0.018511944 -0.060798228
0000a0 8c d2 d2 3c 88 6b 0f 3c 4e 2a 5d bd 2a 24 01 bd
       0.025735162 0.008753665 -0.053995423 -0.03152863
0000b0 2c d3 7d 3d fc b6 91 3c 58 67 51 bd 0c 86 e3 bc
       0.061968967 0.017787449 -0.051123947 -0.02777388
0000c0 d0 4a df bc 3a 5d 5c bd a8 d3 a0 3c 70 d3 f8 bb
       -0.027257353 -0.053799845 0.019632176 -0.0075935647
0000d0 d8 92 45 bd bc 11 5d 3d 54 16 93 bc 86 8f 4c 3d
       -0.048235744 0.05397199 -0.017954983 0.049941562
0000e0 28 2a 4a 3d 88 2f 89 bc 40 ec d0 ba e0 1f 90 bb
       0.04935661 -0.016746297 -0.0015939549 -0.004398331
0000f0 e6 5d 50 3d f4 bc 6d 3d 80 85 f3 ba 86 a2 04 bd
       0.0508708 0.058041528 -0.0018579215 -0.032381557
000100 6a 8b 50 bd b4 39 e8 bc 8e 90 6b 3d 60 7a 70 3c
       -0.050914206 -0.028347827 0.057510905 0.014677614
000110 e6 93 25 bd cc ee 9d 3c c0 e5 85 3c 20 7f 57 bd
       -0.04042425 0.019278906 0.016344905 -0.05261147
000120 20 45 16 3d 00 60 bd 3b b6 59 24 bd a0 a0 f8 bb
       0.036687016 0.0057792664 -0.040124618 -0.0075875074
000130 94 e3 15 3d e0 d9 a9 3b c0 19 81 3c 22 b5 6d bd
       0.03659399 0.0051834434 0.015759349 -0.05803407
000140 00 dc 78 b9 48 87 6c bc a2 e7 79 3d a0 0d 1b 3d
       -0.0002373308 -0.01443655 0.061011918 0.03785479
000150 c6 36 27 bd 00 62 54 3a 14 3a 46 3d a6 6d 15 3d
       -0.04082372 0.00081017613 0.04839523 0.036481522
000160 38 86 d9 bc 60 0e 68 3c 90 b3 5f 3d 2e 45 58 3d
       -0.026553258 0.0141635835 0.054614604 0.05280035
000170 d0 7f 66 bc 80 7e 6a bd 24 36 dd 3c c8 8f 70 3c
       -0.014068559 -0.057249546 0.027003355 0.014682718
000180 50 85 da bb 00 60 8a bc 20 70 47 bb 0c 8b 5e 3d
       -0.006668724 -0.01689148 -0.0030431822 0.054331824
000190 bc fe ee bc 00 b0 3d 3c 48 38 52 bc a8 fd c6 3c
       -0.029174201 0.011577606 -0.012830801 0.024290875
0001a0 0e 2e 48 bd ca 58 02 bd e4 48 29 bd 3c 97 c9 bc
       -0.048872046 -0.031822957 -0.04132928 -0.024608247
0001b0 8a ec 37 3d 36 01 69 3d 58 8d 0e bc e8 27 82 bc
       0.044903316 0.05688592 -0.008700691 -0.01588817
0001c0 02 17 18 3d 38 63 65 3d 78 4d 33 bd 14 24 3e bd
       0.037131317 0.056002825 -0.04377505 -0.046421126
0001d0 fa 4d 48 3d 28 21 e7 bc 50 b7 99 3c 28 4e fb 3c
       0.04890249 -0.028214052 0.018764168 0.030676916
0001e0 30 27 b2 3b a0 96 55 bb e2 50 32 bd 1c 0c ab bc
       0.0054368004 -0.0032591 -0.043534167 -0.020879798
0001f0 a8 a7 15 3c 80 05 3f 3d 04 e7 6f bd 68 20 47 3c
       0.009134211 0.046636105 -0.058569923 0.012153722
000200 f0 c1 2c 3d 8c 8c d1 bc d4 19 05 bd 80 5a 12 3d
       0.04217714 -0.025579713 -0.032495335 0.03573084
000210 28 df ec 3c 78 76 4d 3d 00 c8 1b 3c 20 cc 66 bd
       0.028915003 0.05016181 0.009508133 -0.056347013
000220 e0 7b 28 3c 58 7c ea 3c 40 41 51 bc 2e 44 6b bd
       0.01028344 0.028623745 -0.0127719045 -0.057438068
000230 c0 de 65 bb 48 82 70 bd 30 eb 8c 3c 28 74 31 3c
       -0.0035075396 -0.058717996 0.01720199 0.010830916
000240 00 f7 cc 3b 20 21 7e bd d0 95 e3 3b a4 71 3e 3d
       0.0062550306 -0.06204331 0.0069453493 0.046495095
000250 c0 5b 39 bb 58 dc 7b 3c 70 4c b1 3b 7a b3 51 bd
       -0.0028283447 0.015372358 0.0054107234 -0.051196553
000260 10 81 4d bc 02 cd 65 bd be 8b 7e bd 12 3b 52 3d
       -0.012542978 -0.056103714 -0.062144987 0.051325865
000270 d6 3d 10 bd 36 69 37 3d ec 5f ad 3c 48 23 2f bd
       -0.03521522 0.04477807 0.021163903 -0.042758256
000280 08 c9 7e 3d 5c 0d 82 3c 84 59 aa bc c0 86 7c bc
       0.062203437 0.01587551 -0.020794638 -0.015412986
000290 70 42 09 bd 20 29 61 bb 70 b6 db bc ee 6b 48 bd
       -0.033510625 -0.0034356788 -0.026820391 -0.048931055
0002a0 f4 3b 99 bc c4 94 6f bd 72 ec 6e bd 82 7b 1f bd
       -0.018705346 -0.058491483 -0.05833096 -0.038936146
0002b0 ba 07 1a 3d 5e d7 29 bd 5e 16 19 bd fe a3 7e 3d
       0.037605025 -0.041465156 -0.037374847 0.062168114
0002c0 a8 a5 42 3d 74 d5 1a bd c8 dd 3c bc 20 53 d4 3c
       0.047521263 -0.03780122 -0.011527486 0.025918543
0002d0 28 31 4e 3c 46 30 5a bd 90 2e b4 3c 28 83 44 3d
       0.012584962 -0.053268693 0.021994859 0.047976643
0002e0 ec 1e 3d 3d 2a 27 51 3d ee 96 38 3d 8e 27 73 3d
       0.046172068 0.05106274 0.045065813 0.059363894
0002f0 d0 dc 41 bc 60 0d 94 3b c4 f0 d1 3c 00 90 5b 3c
       -0.011832431 0.004518196 0.025627501 0.0134010315
000300 70 38 c4 bc 9c af f5 3c 9a 0d 70 bd c0 e8 9a bc
       -0.023952693 0.029990964 -0.05860672 -0.018909812
000310 00 bc 36 3c 94 dd 7b bd 34 b9 d9 3c 44 1f 5b bd
       0.011153221 -0.06149061 0.02657757 -0.053496614
000320 20 f1 f5 3b d8 18 fc bc 7a 1c 49 bd d0 31 65 3c
       0.007505551 -0.030773565 -0.049099423 0.013988927
000330 ec da 26 3d 68 72 d8 3c 34 88 2f 3d 50 e2 a0 3b
       0.040736124 0.02642174 0.042854503 0.004909791
000340 b2 66 14 bd a0 1b 79 3c 10 fe 7d 3c 5c 6f 7a bd
       -0.03623075 0.01520434 0.015502468 -0.061141357
000350 6c f8 3f bd 90 56 14 bc 28 54 6d bd 14 30 c0 3c
       -0.046867773 -0.009053841 -0.057941586 0.023460425
000360 80 70 c2 ba d2 93 20 3d 48 df 2c 3d ce 26 23 bd
       -0.0014834553 0.039203472 0.042205125 -0.03983193
000370 e4 ed 23 bd 5c 25 09 3d ea 8f 7d 3d 02 af 4e 3d
       -0.040021792 0.033482894 0.061904825 0.05045987
000380 30 87 aa bc 0e 84 79 bd 20 bc 9b bb 20 8a 44 bb
       -0.020816416 -0.060916953 -0.004752651 -0.0029989555
000390 40 b1 a5 bc 16 e2 68 bd 34 00 24 bd c2 20 6e 3d
       -0.020226121 -0.056856237 -0.040039256 0.05813671
0003a0 0e 21 2c bd 2c fc 91 bc d2 59 56 bd 14 45 47 3d
       -0.04202371 -0.01782044 -0.052331753 0.048649862
0003b0 0a bc 75 3d fe 30 07 bd 5c 50 dd 3c 70 9c 5f bc
       0.05999378 -0.033005707 0.027015857 -0.013648137
0003c0 72 31 2d 3d ec a5 67 3d 18 fa 07 bc 28 f1 c9 3c
       0.042283483 0.05655472 -0.008299373 0.024651125
0003d0 ba aa 60 bd fc a4 f3 3c 50 aa c6 3c a0 4c b1 3b
       -0.054850318 0.029741757 0.024251133 0.0054107457
0003e0 b0 90 9d bc 8e 09 03 bd 20 87 8d bc c0 58 6e bc
       -0.019234031 -0.031991534 -0.017276347 -0.014547527
0003f0 80 76 1b 3a 64 73 dc 3c 30 6d ac 3b 86 41 57 3d
       0.00059304386 0.026910491 0.0052620396 0.052552722

policy.2.bias f4 [5]
000000 34 d9 05 3d c0 66 82 bc a0 b9 65 3c 32 95 74 3d
       0.032677844 -0.015918136 0.014021307 0.059712596
000010 38 84 41 bc
       -0.011811309
